src/main/resources/ML/LSTM/RNN_checkpoint.pth (torch, 33562 bytes, 10 tensors)

lstm.weight_ih_l0 f4 [64, 64]
000000 99 0e 77 3d 09 07 4d be 51 d0 00 be 3b f5 4a be
       0.060316656 -0.20022215 -0.12579466 -0.1982011
000010 44 c5 8d 3c 0d 8f 7b be e0 82 9e be de 51 6f be
       0.017305978 -0.24566288 -0.30959225 -0.23371074
000020 7f 84 19 3e cd 1f 41 be db 74 fe 3d 9b 00 34 be
       0.1499195 -0.18859787 0.12424632 -0.17578356
000030 54 bc c9 3d 78 8b cf 3d e6 9e 80 be af ab d6 bd
       0.09850374 0.101340234 -0.2512123 -0.10481965
000040 98 ff 03 be b1 69 80 3e d4 fe 33 3e 75 91 94 3d
       -0.1289047 0.25080636 0.17577678 0.07254306
000050 a0 a4 07 3e 0f 36 29 bd c2 93 9c 3e 59 51 fc 3c
       0.13246393 -0.04131132 0.3058148 0.030800508
000060 d5 b2 85 3e 22 7a a4 3d d2 4c 14 be 4a 2b c8 bc
       0.26113 0.080311075 -0.1448243 -0.024434704
000070 e2 9d 88 3e 9b 05 6d 3d ce bb c7 3a 34 c6 c9 3d
       0.26682955 0.057866674 0.0015238465 0.09852257
000080 49 45 8d 3e 88 7c 1c be ea cd 72 be 54 29 c7 3d
       0.27591923 -0.1528188 -0.23711362 0.097246796
000090 70 a6 ee bc 63 18 82 3e 23 bf 02 3e cd a5 e6 bd
       -0.029132098 0.2540923 0.12768225 -0.11262093
0000a0 b8 fa 02 be cd f6 67 bd a0 43 3e 3e c8 d9 cb bd
       -0.12790954 -0.056631852 0.18580484 -0.09953648
0000b0 0d cd 6e be c0 c1 58 3e ba ce 68 bd 89 c4 f5 3d
       -0.23320408 0.2116766 -0.056837775 0.12000377
0000c0 5e b0 6d 3e 18 6d 33 3e 22 17 d3 3d 56 ba 8d bd
       0.2321181 0.17522085 0.103071466 -0.069203064
0000d0 f6 77 0d be 65 11 12 be 60 80 0e 3d d2 4f 86 3e
       -0.13815293 -0.14264448 0.034790397 0.26232773
0000e0 c0 cb 82 3e 15 c7 81 3d 86 b7 aa 3c e3 b7 4a 3e
       0.25546074 0.063368 0.020839464 0.1979671
0000f0 5f ae 46 3e 7a 01 52 be 37 1c 5f 3d 1c a2 85 3e
       0.19402455 -0.20508376 0.054470267 0.26100242
000100 8b f6 39 be a0 e7 68 3d 88 42 36 3e 05 a0 93 3d
       -0.18160455 0.05686152 0.17798817 0.07208256
000110 7e c5 8f 3d e2 a0 07 3e e3 f4 f4 3d 26 7b e7 bb
       0.070200905 0.13244966 0.11960771 -0.007064241
000120 66 9c ad 3d 63 cd c6 3d a3 fb 30 be 46 f2 69 be
       0.08477096 0.09707143 -0.17283492 -0.22846326
000130 c0 09 20 3e e9 c9 79 be 67 74 4b 3e f6 3c 22 3d
       0.1562872 -0.24393429 0.19868623 0.039608918
000140 75 c3 07 bd bc 47 87 be d5 10 cf 3d 6b c4 3e 3e
       -0.033145387 -0.26421916 0.10110632 0.18629615
000150 fe 7c 83 3e cb 04 94 3e ed ee e5 bd 5c fa f8 bd
       0.256813 0.28909907 -0.11227212 -0.12157127
000160 10 9c 62 be 8d 41 45 3e fa 43 1e be 1d d8 0e be
       -0.22129846 0.19263287 -0.15455619 -0.13949628
000170 74 07 e6 bd f7 1d 81 bc 35 d6 3a bd 09 a6 0c bc
       -0.1123189 -0.015761359 -0.04561444 -0.008584508
000180 0a 0b b1 be b7 a6 a7 bd 2f 62 25 be 28 e2 e5 3d
       -0.34578735 -0.08186095 -0.16150735 0.112247765
000190 6a 23 23 bd 6a 10 76 be 02 88 82 3e 76 de ee 3c
       -0.039828695 -0.24029699 0.2549439 0.029158812
0001a0 a5 9e 0f be 98 fc 15 3e 1d cd 9d 3d 6f f0 04 be
       -0.14025362 0.14647138 0.07705138 -0.12982343
0001b0 1a 40 63 be d3 c0 05 3e 51 0f 85 3d c9 0a 15 bd
       -0.22192422 0.13061838 0.06497062 -0.03638724
0001c0 52 5a 71 bd 68 5e 50 be d3 8a 24 be 5f 54 70 be
       -0.058924027 -0.20348513 -0.16068582 -0.23469685
0001d0 4d c2 33 be a2 3f 2d be 55 bb e4 3d dc 2b 4d 3e
       -0.17554589 -0.16918805 0.11168543 0.20036262
0001e0 7f 69 51 bd e3 f0 24 be 30 33 66 3e 5b cb 09 3e
       -0.051126 -0.16107516 0.22480464 0.1345648
0001f0 e4 f5 33 3d 24 0a a9 3d 70 bd 99 3e eb e7 6b 3e
       0.04393567 0.08253887 0.30027342 0.23037688
000200 a3 b5 19 be 07 c4 86 3e a9 db cd bd d4 f2 3a 3d
       -0.15010695 0.26321432 -0.100516625 0.045641735
000210 10 5e 2e be 5a 21 82 3e fb 93 12 be e2 b9 31 3d
       -0.1702807 0.2541607 -0.14314263 0.043390162
000220 6f 9e 4c 3e fc 97 3f 3e f3 cb 24 3d 93 11 09 be
       0.19982313 0.18710321 0.040233564 -0.1338561
000230 bc cc 34 3e 71 a1 89 be 2c 66 80 bc 4c 2c 91 be
       0.17656225 -0.26880983 -0.01567372 -0.28354108
000240 a0 4a 28 3e 9c 33 dd 3b c5 4d d9 3d a5 d3 16 3e
       0.16434717 0.006750537 0.106105365 0.14729173
000250 fa 6c 25 3e 19 84 42 be d5 cf ae 3d b9 67 78 3e
       0.16154853 -0.18995704 0.085357346 0.24258317
000260 76 2f c3 3d f5 69 8f 3c b7 8a ec 3d 28 93 b9 3b
       0.09530537 0.017506579 0.11549895 0.0056632943
000270 fb 3e 52 be 1b 1b 2b 3e 15 ff ef bd 83 1a 30 3e
       -0.20531838 0.16709559 -0.11718575 0.17197613
000280 29 44 bc bd f0 6a 55 3d 91 8a 6f be b9 91 2d ba
       -0.09192688 0.052103937 -0.23392703 -0.00066211406
000290 f1 a4 1e be 2a dc 8f be 1c f2 7b 3e 69 e9 78 be
       -0.15492608 -0.2809766 0.24604076 -0.24307789
0002a0 f1 77 a3 3d 02 a1 62 be f3 e6 a4 bd 81 7b 68 3e
       0.079818614 -0.22131732 -0.080518626 0.22703363
0002b0 9f 7a 1d 3e f9 54 f7 3d b6 3e 58 be 30 36 4d 3c
       0.15378807 0.12076754 -0.21117672 0.012525126
0002c0 ce 0a 84 3e d2 f9 23 3e db 3a ea bd 85 65 e0 3d
       0.25789493 0.16013268 -0.11437007 0.10956863
0002d0 f9 32 3f 3d 2f 9c 34 bd d4 23 8a 3e 01 49 d0 3c
       0.04667947 -0.04409426 0.2698046 0.025425436
0002e0 5c 4e 2c 3d 9f 09 16 3e 5a 3c 86 3e 5b 7d da bd
       0.042066917 0.14652108 0.2621792 -0.10668441
0002f0 46 71 0e 3e 90 5e 5a be 71 4d e2 3d 0f 3c b3 bc
       0.13910398 -0.21325135 0.11049927 -0.021879224
000300 c1 25 08 3d ce a8 23 ba ed a6 a5 bc 91 c5 bc 3c
       0.03323913 -0.00062431104 -0.020221198 0.023043426
000310 ff f1 3a be 79 f7 40 3e 55 ce 35 be 9b 99 69 be
       -0.18256377 0.18844403 -0.1775449 -0.22812502
000320 49 19 28 be d7 37 1b be 32 2d 0b be 66 4f 19 be
       -0.16415896 -0.1515802 -0.1359146 -0.14971694
000330 30 84 93 be 86 5f 55 be 91 e6 d1 bd 03 aa 1c be
       -0.2881179 -0.2083722 -0.10249055 -0.1529923
000340 2a 37 b7 bd b9 c7 0e 3e 0a ad 0a 3e 9d 60 d9 3d
       -0.089460686 0.13943376 0.13542572 0.10614131
000350 46 79 12 3e e9 97 ad bc ee 08 b4 bd 63 c8 44 3e
       0.14304075 -0.0211906 -0.08790766 0.19217066
000360 d0 37 93 3c c4 6d 3f bd 87 21 84 3e b1 07 29 3d
       0.01797095 -0.04673554 0.2580683 0.0412671
000370 2c da 32 3c 4c bd 40 3e 45 28 25 3e 65 8e 24 be
       0.010916274 0.18822211 0.16128643 -0.16069944
000380 0b ea da 3d 41 f1 8e 3e a5 14 a5 bd 2b 6a 62 3e
       0.106891714 0.27918437 -0.08060578 0.22110812
000390 dd 00 56 3e 85 4c f6 bd d6 04 e2 3b 59 ac 4e 3e
       0.20898767 -0.12026314 0.006897549 0.20182933
0003a0 5e 61 ba bd c8 b9 ec bc 78 e6 12 be bd af a5 3d
       -0.091006026 -0.028897181 -0.1434573 0.0809016
0003b0 2b 56 0d 3e 95 06 05 3e 53 09 f7 3d 8f d5 3d be
       0.13802402 0.12990792 0.12062325 -0.18538497
0003c0 44 9d 17 be 8c 11 10 be e3 1b a1 3d c2 bd b7 3d
       -0.14806086 -0.14069194 0.07866647 0.0897174
0003d0 66 a6 1e be 1e cb 59 3e 89 33 18 be 2a 9d 18 be
       -0.15493163 0.2126889 -0.14863409 -0.14903703
0003e0 52 10 71 be 45 1e aa bc 40 53 20 be 61 7c e9 3c
       -0.23541382 -0.020766387 -0.15656757 0.028501691
0003f0 8e 4a f5 3d e6 d5 3b be 20 a5 44 3e 2d f0 5d be
       0.11977111 -0.18343315 0.19203615 -0.21673651

lstm.weight_hh_l0 f4 [64, 16]
000000 6d 93 29 bd dc 91 53 be 36 b9 55 bd 31 ba 12 be
       -0.04140036 -0.2066111 -0.052178584 -0.14328839
000010 03 36 ab bd e9 a3 0f 3e 46 0c 33 3d f8 fb a5 3d
       -0.08359911 0.1402737 0.043712877 0.081047
000020 c7 62 35 3c e7 35 df 3c 41 bf 2a 3e 67 11 ad 3d
       0.011070914 0.027247382 0.1667452 0.08450585
000030 24 87 a4 b9 75 90 91 be 0d 5c 6c be 32 45 83 bd
       -0.00031381205 -0.28430524 -0.2308199 -0.06409682
000040 16 d1 22 be b2 02 e9 bd 09 8f 3e 3e be ae 20 be
       -0.15900072 -0.11377467 0.18609251 -0.15691659
000050 c8 4e ef 3d d4 e9 40 3e dc 4e f2 bd fc 8d 3f 3e
       0.11684948 0.18839198 -0.118314475 0.18706506
000060 30 f1 8f 3c 3f 89 31 3e 92 a4 67 bc 50 fb 41 3e
       0.017571062 0.17337511 -0.014138358 0.18943524
000070 74 c4 82 be 45 fd 23 be 84 12 35 be 36 5a 7e 3d
       -0.25540507 -0.16014583 -0.17682844 0.06209775
000080 82 21 bf bd ee 07 f7 bd 90 c6 4e be 6d 0e 1d be
       -0.09332563 -0.12062059 -0.20192933 -0.15337534
000090 79 be 36 3e ef 8b 0b be e9 5e 5d 3e 51 94 1c 3e
       0.17846097 -0.13627599 0.21618237 0.15290953
0000a0 5e f4 32 bd 4e 85 42 3d e1 46 17 bd c7 1a 82 be
       -0.043690078 0.04749041 -0.03693283 -0.25411054
0000b0 cd f2 8b 3d c0 04 13 be 30 02 d3 bc 86 2e 4a be
       0.0683342 -0.1435728 -0.025757879 -0.1974431
0000c0 37 4f 15 bd ce 74 76 bd be 2b df bd 34 13 4e 3d
       -0.0364525 -0.060169987 -0.10897015 0.050311282
0000d0 2a 5c e6 3d 90 23 8a 3d 77 cc e9 3d 6f 40 f1 bd
       0.11248048 0.06745064 0.11415952 -0.11779868
0000e0 71 1f 99 3d 1b fc 63 3e 6b 50 20 be 87 91 95 3d
       0.074767 0.2226414 -0.15655677 0.07303148
0000f0 f1 2b 38 be ab 68 74 3c ac 72 85 3e 2a 82 68 bd
       -0.17985512 0.014917533 0.2606405 -0.05676476
000100 4b 40 17 bd 1c 79 c4 bc 54 f0 36 bc 0e cd 99 bc
       -0.03692655 -0.02398353 -0.011165697 -0.018774536
000110 1c 8a 6b be 1d 70 d1 bd f2 e6 43 be b4 34 5b be
       -0.23001903 -0.10226462 -0.19131067 -0.21406823
000120 fe df f7 bd cf 10 7d 3e 27 3d 83 3e aa c3 91 be
       -0.1210327 0.24713443 0.25632593 -0.28469592
000130 7c b9 6a 3d 79 65 62 3e ea 5a 6c be 26 d6 d8 bd
       0.057305798 0.22109021 -0.23081556 -0.105877206
000140 3d 44 7a 3e 42 ab 89 3d 63 69 41 3e 13 98 9f bd
       0.24440093 0.06722118 0.18887858 -0.07792678
000150 7f c5 06 be c5 f7 88 be 75 bf 2c 3d 87 54 7f 3e
       -0.13161276 -0.26751533 0.042174775 0.24934588
000160 ea bf 82 be 9e 52 6d be e1 5e c3 3d d8 0b 8e bc
       -0.25537044 -0.23176047 0.09539581 -0.017339632
000170 63 5b 00 be 51 b4 4c 3e f6 5e ca 3d c7 ab f7 bd
       -0.12534861 0.1999066 0.098813936 -0.12093311
000180 9a 9b 39 bb 8f 92 2c 3d 91 ad 4e be 88 ca 33 3e
       -0.0028321506 0.042131957 -0.20183398 0.17557728
000190 3c d5 ba bd e9 0e 43 be 24 b0 99 3d 98 3c b1 bd
       -0.091227025 -0.19048657 0.07504299 -0.086541355
0001a0 a7 8f 56 be 60 82 d9 3d 41 b3 11 3e 1c 16 b1 bd
       -0.20953237 0.1062057 0.14228536 -0.08646795
0001b0 c4 24 11 be 37 f2 44 be be dc 2c 3e 61 02 2e be
       -0.14174181 -0.19233023 0.16881081 -0.16993095
0001c0 e2 1d 19 be 0e f1 c9 bd 88 00 33 be 13 c5 5c bd
       -0.14952806 -0.09860431 -0.17480671 -0.053898882
0001d0 74 54 c9 3d 80 98 15 3e 95 9c 12 3e 82 99 11 3d
       0.09830561 0.14608955 0.14317544 0.035546787
0001e0 5e 9f 1c be dc 92 0b 3e 01 2e 29 3e 74 16 08 be
       -0.15295169 0.13630241 0.16521455 -0.13289815
0001f0 cd e4 58 be 0c 4f 1b be 59 7b 10 be 2a 1b 2a 3d
       -0.2118103 -0.15166873 -0.14109553 0.041529812
000200 23 76 a7 bd c0 42 96 bd a6 0d e2 3d ec a6 9d 3e
       -0.0817683 -0.0733695 0.110377595 0.30791414
000210 6a fc a9 3c 6e 1a ec 3b f1 aa 86 3e 1c 7f 1f 3e
       0.020750243 0.007205299 0.26302293 0.15575832
000220 4a 73 09 be 80 36 87 3d db 3f 07 3e d3 a7 80 be
       -0.13422886 0.06602192 0.13207953 -0.2512804
000230 32 6d 27 3e fc 95 aa 3d fc ea 5a bd 87 25 92 3e
       0.16350248 0.083293885 -0.053446755 0.28544256
000240 e7 9c fb 3c 5d e2 8a 3e 89 9c 2d 3d d4 16 ec 3d
       0.030714465 0.27125826 0.04238561 0.115277916
000250 2a 42 7c 3e f4 84 da bd f8 57 19 3c e9 32 2e 3e
       0.24634615 -0.1066989 0.009359352 0.17011608
000260 6f 01 73 be 4d 66 47 3e 2a 12 07 3d a9 77 9a bd
       -0.23731016 0.19472618 0.032976307 -0.075423546
000270 23 75 c8 bc 0b 06 68 bd dc ec 1a be bb a0 e3 3d
       -0.024469918 -0.056646388 -0.15129417 0.11114641
000280 ed da 71 be de 9c 34 bc da b2 42 3c ed 58 e5 bd
       -0.2361867 -0.011023728 0.011883462 -0.11198602
000290 80 c8 b0 bd 66 ac 47 3e 13 9c 36 bd 6e 76 41 be
       -0.08631992 0.19499359 -0.044582438 -0.18892834
0002a0 0b bd 2a 3e 0b c4 25 be 3c ef bc 3a a8 04 41 3e
       0.16673677 -0.16188066 0.0014414559 0.18849432
0002b0 f0 84 1e 3e 50 12 5d 3e e3 e5 4a 3e 24 bc e4 3d
       0.15480399 0.21589017 0.19814257 0.111686975
0002c0 64 22 00 be d6 fd 95 bd f1 a3 01 3e 83 b8 f9 bd
       -0.12513119 -0.07323806 0.12660195 -0.12193396
0002d0 78 30 0d 3d 53 32 1f be c5 0c 69 ba 67 05 68 3e
       0.03447005 -0.15546541 -0.00088901474 0.22658311
0002e0 f3 79 20 be 7b 8e bb 3d c3 1e e6 bc ec 6d 05 3e
       -0.1567152 0.09158035 -0.02809084 0.13030213
0002f0 ff 64 26 be ec 78 9f 3d 52 be a3 3d bd c6 2f bd
       -0.16249464 0.07786736 0.07995285 -0.04291414
000300 78 f5 86 be 4f a9 d7 3c 5f 18 47 be 9d b5 39 be
       -0.26359153 0.02632585 -0.1944289 -0.18135686
000310 2a 93 6d 3e f1 2a 6f bd 98 ed a1 3d 8a 92 56 3e
       0.2320067 -0.05839056 0.079066455 0.20954338
000320 32 d7 5d 3d 4e cd 41 3e ad 2f 9b 3e 14 e4 17 bd
       0.054160304 0.18925974 0.3030981 -0.037082747
000330 ab 7b e0 bd a7 e3 e5 bd 55 1b 8f bd 39 dc 20 3e
       -0.10961088 -0.11225062 -0.06987635 0.15709008
000340 03 73 4d bc 61 28 d1 3c f9 6a ac 3d d3 92 c4 3d
       -0.012539628 0.02553195 0.08418841 0.09598317
000350 b5 b6 6a be 93 18 06 be ce ea c7 bc 24 95 2e be
       -0.2292126 -0.13095312 -0.024403956 -0.1704908
000360 f9 94 c5 bd 84 57 e5 3d 81 4e 7d 3e 88 a0 32 be
       -0.09647555 0.11198333 0.24736978 -0.1744405
000370 25 69 e8 bd a4 ca 4c be 69 d0 cf 3b 3a d9 58 3e
       -0.1134818 -0.19999176 0.006341983 0.21176615
000380 a2 89 54 3e e1 a2 7f bd 07 c6 29 3e 24 be 15 be
       0.20755628 -0.062411193 0.16579448 -0.14623314
000390 f8 58 7a 3e 05 0e 10 bd 5a 18 66 3c 40 35 dc bc
       0.24448001 -0.03516962 0.014043892 -0.02688086
0003a0 0f db 8e 3e 54 d7 37 bd b8 11 76 be 99 eb 47 3e
       0.27901503 -0.044883087 -0.24030197 0.19523467
0003b0 dd ae 90 bc 3a 62 2a 3e 5d 81 44 3d e1 43 2d 3e
       -0.017661506 0.16639033 0.047974933 0.16920425
0003c0 76 63 e8 3d 7a 98 11 bd 4f cd c2 3b fe 46 17 be
       0.11347096 -0.035545804 0.005944885 -0.14773175
0003d0 eb df f9 bd 19 9e cd 3d 8a 44 bf 3c 5f 28 82 bd
       -0.12200912 0.1003992 0.023348112 -0.063553564
0003e0 dc d0 1d 3e a3 3e cc 3c 70 17 c0 3d b1 97 ab bd
       0.15411705 0.024932211 0.0937947 -0.08378542
0003f0 d5 a6 50 bd 29 b6 06 be 5d c1 3a bd d4 1a 15 3e
       -0.050940353 -0.13155426 -0.04559456 0.14561015

lstm.bias_ih_l0 f4 [64]
000000 24 0a 5c 3d 79 1b 19 3e d6 68 50 be 7b 8c 26 3e
       0.05372061 0.14951886 -0.20352492 0.16264527
000010 34 3f 10 3e 78 cb 81 3d e3 b8 a5 3d dd 88 2d be
       0.1408661 0.06337637 0.08091905 -0.1694674
000020 24 d1 92 bd 8f d8 a4 3e a8 9b 92 3d 9f 04 5f bd
       -0.07168797 0.3219647 0.07158595 -0.054447766
000030 e4 ed 8d 3d 97 94 50 be ee 2d 4b 3e 11 0a 17 be
       0.0693014 -0.20369183 0.1984174 -0.14749934
000040 99 f4 89 be 40 c3 b5 bd 38 80 33 3e 8b 20 2f be
       -0.26944426 -0.088751316 0.1752938 -0.17102258
000050 57 62 8a bc 80 84 19 bb 00 fa cd 3c eb e8 73 3d
       -0.016892595 -0.0023424923 0.025143623 0.0595483
000060 2c 09 5d be 32 86 75 be 3e df 50 be af 07 bc 3d
       -0.2158553 -0.23976973 -0.2039766 0.09181153
000070 23 97 66 be 34 bc 65 bd dd c3 98 3d 89 e9 20 3c
       -0.22518592 -0.056087688 0.07459233 0.009821304
000080 12 d6 ef bd 28 48 c9 bc 93 d7 43 3d 19 bb 1c 3e
       -0.117107525 -0.02457054 0.04781301 0.15305747
000090 ff 5b b2 bd 7e ea b1 bd 9e 0b 1b 3e 12 cd 81 3d
       -0.08708953 -0.08687304 0.1514115 0.06337942
0000a0 9c 1d 0d 3e 85 16 53 3e 78 a1 21 3e 47 3d df 3d
       0.13780826 0.2061406 0.15784252 0.109003596
0000b0 91 ed f3 3d ad a5 29 be da 6f 64 be 01 4b cc bd
       0.119105466 -0.16567107 -0.22308293 -0.09975243
0000c0 fc 39 f3 3d 2f f9 77 3e ec 51 25 3e 0a 5b 13 be
       0.11876294 0.2421615 0.16144532 -0.14390197
0000d0 35 1d 90 3c d9 2e cf bd 1f c9 20 3e e6 de 01 3c
       0.017592052 -0.10116357 0.15701722 0.007926678
0000e0 66 de 97 3e b3 5f e9 3c 2c 6f 9c 3e e4 61 ca 3d
       0.29661864 0.028488016 0.30553567 0.098819524
0000f0 32 f1 5d bc 11 0a 14 3d f0 b6 3c 3e ed c9 de bd
       -0.013546275 0.036142413 0.1842916 -0.10878358

lstm.bias_hh_l0 f4 [64]
000000 b2 53 a0 bd 82 26 0c 3e d6 dd 18 3e ae 7e 55 bc
       -0.078284636 0.13686565 0.14928374 -0.013030691
000010 a3 78 67 bd 0d 62 f4 3b a6 09 ae 3c a4 97 3c 3d
       -0.056511533 0.0074579776 0.021244835 0.046043053
000020 56 4f 12 be af 94 bd 3e 93 60 e2 3d 10 e5 5e be
       -0.14288077 0.370275 0.11053576 -0.21767068
000030 45 db 78 bd 8b d3 50 3d 5e 1f 4e 3e 48 e0 27 be
       -0.060755987 0.050982993 0.20129153 -0.1639415
000040 13 fd 8b be 18 b9 ed 3d 16 5d 1b 3d 0b 07 2a be
       -0.27341518 0.116075695 0.03793057 -0.16604249
000050 02 c1 41 3d 60 b0 0d bc a9 2f 45 3c 9a f5 36 be
       0.047303207 -0.008648008 0.012035289 -0.17867127
000060 ce bd f0 3d 28 ad 64 be a0 1e 71 3e 94 5b ec bd
       0.11754952 -0.22331679 0.23546839 -0.11540905
000070 a1 07 34 3e bb e4 3c 3e 82 15 50 3e 77 84 78 3e
       0.17581035 0.18446629 0.20320705 0.24269281
000080 33 70 6b bc 1b 56 91 3a cd 3f 79 3d d6 48 12 bd
       -0.014370012 0.0011088283 0.06085186 -0.035713993
000090 2b 18 99 bd 95 da 80 be 40 39 9d 3e ef 56 e0 3c
       -0.07475313 -0.25166765 0.3070774 0.027385203
0000a0 b6 7b ed bb 93 de 76 3e 87 72 24 3e ce 2c bc 3c
       -0.0072474135 0.24108343 0.16059314 0.022970583
0000b0 55 81 b3 3d 6a 3e 4c bd 17 88 2d be 74 3b 68 3e
       0.087649025 -0.04986421 -0.16946445 0.2267893
0000c0 80 4d 97 3e 9e c7 3a be 9f b7 9b 3e fc b6 27 3e
       0.29551315 -0.1824021 0.3041353 0.16378397
0000d0 13 f7 62 3c 63 df 37 3d 12 df 66 bb 41 86 78 3e
       0.013852852 0.044890773 -0.0035228175 0.24269964
0000e0 2b 98 3e 3e 51 c7 94 3d 31 7f 20 be 5a 29 40 3e
       0.18612735 0.07264579 -0.1567352 0.18765774
0000f0 90 2e de bd 94 d2 3d bd a5 3b dc bd 46 1f 78 bd
       -0.10848725 -0.0463434 -0.10753564 -0.0605767

lstm.weight_ih_l1 f4 [64, 16]
000000 79 e3 60 be 3c 82 51 3e e3 be 0a bc d6 28 7c 3e
       -0.21961774 0.20459837 -0.0084683625 0.24624953
000010 21 2c 59 3d 27 4a 84 be 68 dc c9 3e 89 b9 1a be
       0.0530206 -0.25837824 0.3942597 -0.15109839
000020 1a 0f 76 3c ac 4a ef bd a4 54 c0 bd bb b7 a8 bd
       0.015018249 -0.116841644 -0.09391144 -0.08238169
000030 22 9a fb 3d e9 64 2d bc 20 9d 6a bd cd 17 02 3d
       0.12285258 -0.010583141 -0.057278752 0.03176098
000040 55 bd 10 be 41 e4 a4 bc b0 c7 8c be 5a a4 ba bd
       -0.14134724 -0.020128371 -0.274961 -0.09113379
000050 08 99 cf 3d 90 19 82 3c 1a 72 70 3d cd 68 17 bd
       0.1013661 0.01588133 0.058702566 -0.03696518
000060 9e 78 5b be 09 05 ec 3d 3f ba e9 bd 1e 21 12 be
       -0.2143273 0.11524398 -0.11412477 -0.14270446
000070 a5 a6 cb 3d 58 db 5e be b9 af a4 be 45 20 06 be
       0.09943894 -0.2176336 -0.32165316 -0.13098247
000080 7c a5 5a bd 2b 70 27 3e bc 9e a4 be a6 42 bf 3e
       -0.053380474 0.16351382 -0.32152355 0.37355536
000090 81 44 9c 3d 41 c9 bf bd 10 61 42 bc 3d 67 93 3e
       0.076302536 -0.09364558 -0.011863962 0.28789702
0000a0 0a 2e 94 be b4 f9 1b 3e a8 47 5f 3e 3c 40 42 3d
       -0.28941375 0.15231973 0.21804678 0.04742454
0000b0 3a 88 a0 be e3 be 99 bd 1e 97 1e 3d 68 34 36 bd
       -0.31353933 -0.07507112 0.038718335 -0.044483572
0000c0 42 cf a8 bd ae de 81 3e 0e 78 b7 be 03 73 a3 3e
       -0.08242656 0.25365204 -0.35833782 0.31923684
0000d0 c8 a0 0b be a8 61 0c be b4 63 9b 3e 0b fe a0 3e
       -0.13635552 -0.13709128 0.30349505 0.3144382
0000e0 32 07 87 be 93 2e f7 3d d8 0e c6 bd 18 95 24 bc
       -0.26372677 0.1206943 -0.096708 -0.010045312
0000f0 70 06 67 3d da dc fe bd 57 62 55 be 79 3b 93 3e
       0.056402624 -0.12444468 -0.20838295 0.28756312
000100 33 d6 b7 3d ef 9a 94 3b 4d 35 9d 3c 52 7b f9 bb
       0.08976402 0.004535071 0.019190455 -0.007613578
000110 9c 5d c0 bd e2 31 d3 bd 88 40 8d 3e 79 c4 92 3d
       -0.093928546 -0.10312249 0.27588296 0.071663804
000120 49 f6 d8 3b 9a 56 85 3e ec 66 9f 3e 77 6d c2 bd
       0.0066211564 0.26042634 0.3113321 -0.09493535
000130 8d 1b 69 bc c2 15 9d be 03 1d af be 50 bc 9c 3d
       -0.01422776 -0.30680662 -0.34201822 0.07653105
000140 43 b3 39 be 88 b7 72 be 53 13 57 3b 46 94 79 3e
       -0.18134789 -0.23702824 0.0032817915 0.24372968
000150 f3 82 26 be c9 b2 c8 3c 4f 2b 98 3e 41 64 f1 3d
       -0.1626089 0.024499314 0.29720542 0.117867
000160 55 1c f1 bd e9 ec 07 3d 43 0b 50 bd f8 f5 50 3e
       -0.11772982 0.03318492 -0.05079199 0.2040633
000170 7d c2 2f 3e 2b da 79 be ef f0 94 3e b6 b9 f3 3d
       0.17164035 -0.2439963 0.29090068 0.11900656
000180 85 33 32 be b9 a6 19 3e a9 b9 81 bd bf b9 82 3d
       -0.17402466 0.15005006 -0.0633424 0.063830845
000190 65 2b ba 3d 65 89 1c 3e dc 94 75 3e 32 b1 ae bd
       0.09090308 0.15286787 0.23982567 -0.08529891
0001a0 8b b5 91 3e b5 30 a6 bc 2e 69 80 3e d6 8a 87 bd
       0.2845882 -0.020286897 0.25080246 -0.06618278
0001b0 d8 ee a5 bd 12 b8 34 3e f3 e2 de 3d a0 ac 3c 3e
       -0.081021965 0.17648342 0.10883131 0.18425226
0001c0 d6 8e 8c bd 1c 1c 09 be 6b 08 6a be e8 ba b8 3d
       -0.06863181 -0.13389629 -0.22854774 0.090200245
0001d0 6f 26 32 bc 55 b3 68 3e 4b 53 61 bd 87 ac 33 3e
       -0.010873421 0.2272466 -0.055011075 0.17546283
0001e0 e6 d8 fb bd 7f 94 d7 3d e6 4a 6c 3e 15 5d 44 be
       -0.122972295 0.1052637 0.23075446 -0.19176133
0001f0 ca 93 41 be 63 50 8e be 41 e7 0e be 84 d1 44 be
       -0.18904033 -0.27795705 -0.13955404 -0.19220549
000200 a1 c8 e8 bc 00 1c 85 bd 9a 71 19 bc 75 dc e8 bd
       -0.02841598 -0.06499481 -0.009365464 -0.11370174
000210 fd 5f 8d be 35 5e 9a be 57 e3 67 3b c4 da 7d be
       -0.27612296 -0.3015 0.0035383308 -0.24790484
000220 70 23 af bd e6 bc 8d be 9e 0a 1d be 18 b8 04 be
       -0.08551681 -0.2768318 -0.15336081 -0.12960851
000230 c9 52 7e 3c 8c 97 83 bb f3 e3 d3 3d 53 d4 8a bc
       0.015522667 -0.0040158685 0.10346212 -0.016946947
000240 17 42 90 be cd 94 66 3e 7f 5c 63 be 20 d9 2a 3b
       -0.28175423 0.225177 -0.22203253 0.0026069358
000250 2c 2b 53 3e ce 46 6c be 6c 7b 65 bc 16 b8 c1 bd
       0.20621938 -0.23073885 -0.014006477 -0.0945894
000260 0b 13 13 3e ab 3c aa bd 48 99 b7 3e 1e d0 b2 be
       0.14362733 -0.08312353 0.35859132 -0.34924406
000270 2d 6b 26 3d 09 90 ae be af 92 a0 be 97 a3 a0 3e
       0.040629555 -0.34094265 -0.3136191 0.3137481
000280 e1 a3 31 3e 48 8b 27 be 71 45 98 be 7b 3e cc 3c
       0.17347671 -0.16361725 -0.2974048 0.024932137
000290 0c c0 6d bd 3e 72 7c 3e 32 99 5b 3d 65 43 12 3e
       -0.05804448 0.24652955 0.053612895 0.14283521
0002a0 17 08 2e bd d1 be 58 3e ed 94 2c 3e 1e 06 85 bd
       -0.042488184 0.2116654 0.16853686 -0.064953074
0002b0 b6 a0 81 3d 39 9c 87 be e9 4b 96 be df cd 1a 3e
       0.06329481 -0.26486376 -0.2935479 0.15117596
0002c0 07 7e 78 be 03 b3 3b 3e 0d 83 a7 be 26 76 c4 3e
       -0.24266826 0.18330006 -0.3271717 0.3837139
0002d0 76 f2 af 3e 78 3b d9 be 50 a8 91 3e 47 ad 0c 3e
       0.3436467 -0.42428184 0.28448725 0.13737975
0002e0 b5 85 41 be a3 4d 4d 3e 3d f3 27 3d 22 19 b5 bd
       -0.18898661 0.20049147 0.041003454 -0.08842684
0002f0 2b 66 21 be a2 ca 22 be 69 32 74 bd 03 39 da 3d
       -0.1576163 -0.15897611 -0.059618387 0.10655405
000300 03 a2 8c be 6b 04 38 3e 9b 84 07 3e 34 b5 17 3e
       -0.27467355 0.17970435 0.13234179 0.14815217
000310 f8 f4 37 3d c7 d7 04 3c af 1d 00 bb db 3c a0 bd
       0.044911355 0.008108086 -0.0019548943 -0.07824107
000320 55 5d 29 be 50 5b 8a 3d c3 e9 7c 3e 63 c9 87 be
       -0.1653951 0.06755698 0.24698548 -0.26520833
000330 38 c2 70 3e 3c c0 fd 3d 2e b9 7e 3d d1 f2 82 3e
       0.23511589 0.123901814 0.06218832 0.2557588
000340 a5 21 70 3d 68 11 75 3e 50 8d b7 be 69 45 0b 3e
       0.058625836 0.23932421 -0.3585 0.13600697
000350 0b 8b 5c 3e 60 88 4b 3e db 7f e1 3d 26 03 86 3e
       0.21537416 0.19876242 0.110107146 0.26174277
000360 1e 4f 9b bc 11 df 21 3e a4 22 8b 3d d1 6b ab bc
       -0.018958624 0.1580775 0.067937165 -0.020925434
000370 50 29 a5 be 79 7f 8f 3d ca dc 7e be 93 17 68 3e
       -0.3225808 0.07006735 -0.24888912 0.22665243
000380 15 71 10 3e 1f 8f b8 3e a0 a9 8b be 8a c0 f5 bc
       0.14105637 0.36046693 -0.2727785 -0.029999036
000390 9b 03 c2 3e af 2c 57 be b6 24 a8 3c 38 a5 42 3e
       0.37893376 -0.21013139 0.020525318 0.19008338
0003a0 2d 4f d2 bc 40 95 ed 3c c3 5d 74 3e 89 d5 ab 3d
       -0.02567252 0.029001832 0.23863892 0.08390338
0003b0 1c 6e 16 bc 66 92 d0 3c 7b f7 45 be 3b f4 5a bb
       -0.009181526 0.025460433 -0.19332688 -0.0033409733
0003c0 e0 a4 41 be e2 37 82 3e 2b b9 8a bc 66 b0 5d 3e
       -0.18910551 0.2543326 -0.016933998 0.21649322
0003d0 52 4a bd bc 8f de 67 be 03 25 98 3e 26 76 c2 3e
       -0.023106728 -0.22643493 0.29715738 0.37980765
0003e0 63 c7 82 be d9 6b 0d be d1 1d 97 3e e8 11 b8 be
       -0.25542745 -0.13810672 0.29514936 -0.3595116
0003f0 97 79 21 3c e4 3f 66 be eb fa de bd a7 6b 7c 3d
       0.009855649 -0.2248531 -0.108877026 0.061626103

lstm.weight_hh_l1 f4 [64, 16]
000000 18 a4 7f bd 98 ab 87 3e 51 64 bd 3e 9d 02 38 3e
       -0.06241235 0.26498103 0.36990598 0.17969747
000010 ac 52 61 3d 5a 10 b5 3e 1a fb bd 3e c0 7c e8 3e
       0.055010483 0.35364038 0.37105638 0.45407677
000020 c1 bf 8e 3e 6b 97 2c bd 69 37 b7 3e cb e9 d6 bd
       0.27880672 -0.04213659 0.35784462 -0.10493811
000030 a4 60 20 be 58 6b 7f 3e 01 09 8c 3e 8b a6 3f 3e
       -0.15661865 0.24943292 0.2735062 0.18715875
000040 b0 da 28 be 05 93 76 3e 42 1a 95 bd 26 ab de bd
       -0.16489673 0.24079521 -0.07280399 -0.10872488
000050 fe 1e b3 be c0 8e a8 3e eb 31 57 3e f3 9a c2 3d
       -0.34984583 0.3292141 0.21015136 0.095022105
000060 43 09 19 3e 95 48 3c 3b b2 35 02 3e 25 6e 77 be
       0.1494494 0.0028729786 0.12715796 -0.2416311
000070 ae 91 05 be 46 67 a7 bd 28 91 7a 3e 0d 4e 8c 3e
       -0.13043854 -0.08173995 0.24469435 0.27403298
000080 62 3e ab be f8 4c 9b 3d cf fe bb bb a0 c4 a0 3e
       -0.33446032 0.0758304 -0.0057371627 0.31400013
000090 77 38 1e 3d 7c c5 3f 3e 17 3d 80 3e d7 9e 95 3e
       0.038628068 0.18727678 0.25046608 0.29222748
0000a0 0d 05 e4 3d cd 83 45 3d ca 12 91 bc be 33 d7 bc
       0.11133776 0.0482214 -0.017709155 -0.02626979
0000b0 97 39 8e bd 6f e6 81 bc 8f 4f 2d 3e 75 ac 86 3c
       -0.06944578 -0.01585695 0.1692488 0.016439656
0000c0 dd d0 2b be e2 34 46 3c 5a 12 a1 3e 91 4e c5 3d
       -0.16778894 0.012097569 0.31459314 0.09634126
0000d0 f9 7b 78 bd e5 c2 68 3e d1 63 cc 3e 82 40 ab 3e
       -0.060665105 0.22730596 0.39919904 0.33447653
0000e0 85 74 64 bd 6f 4e 7e 3c e9 29 9c 3e e4 f5 5e 3c
       -0.055775184 0.01552163 0.30500725 0.01360843
0000f0 95 41 c6 bd c6 4f a2 3e 3e 51 e4 3d e3 e3 0c 3e
       -0.096804775 0.31701487 0.11148308 0.13758807
000100 a8 45 a6 be ef 78 0d 3e 84 68 97 3e fc 91 96 bd
       -0.32475019 0.13815664 0.29571927 -0.07352063
000110 3a 6f 7e be f0 ad d0 3e 56 06 c5 3e 3a af 94 3e
       -0.24847117 0.40757704 0.38481396 0.29039937
000120 c0 ca cb 3e 48 82 0e bd 82 4d 51 3e d2 cb 24 3e
       0.39803123 -0.034792215 0.20439723 0.16093376
000130 00 6c 4a be 23 5e 95 3e 3a 6b 9b 3d ad 49 6a 3e
       -0.19767761 0.29173383 0.07588811 0.22879668
000140 c5 37 83 be ad 38 27 3e 90 9c 9f 3c c1 85 ab 3e
       -0.25628486 0.16330214 0.019483835 0.33500484
000150 53 25 53 3d 95 cf 24 3e c4 e7 b3 bb b8 3d c0 bd
       0.051549267 0.16094811 -0.005490275 -0.09386772
000160 6b bf 81 3d 5c b9 d4 bd 87 08 73 3e d6 b3 be 3d
       0.06335338 -0.10386917 0.23733722 0.09311645
000170 70 70 14 3d ee 2e bf 3d 2a f3 8e 3e a6 0f 20 be
       0.03624004 0.09335123 0.27919894 -0.1563097
000180 90 95 22 be 0e 1d 97 bd 48 b1 6f bc a0 3d 9e 3c
       -0.15877366 -0.073785886 -0.0146296695 0.019316494
000190 b8 2e 8d be 59 bc 2e 3e b5 62 d1 3d 76 b4 55 3e
       -0.27574706 0.17064036 0.10223905 0.20869622
0001a0 df b1 96 3d 57 8a 54 be 72 ae fb bb 70 2d 2d 3e
       0.07358145 -0.20755897 -0.0076807076 0.16911864
0001b0 35 80 d5 bc a1 40 75 3d 6f 3d 46 3e 9e ce 73 3c
       -0.02606211 0.059876088 0.19359373 0.014880804
0001c0 93 19 e9 bd 0c a1 a7 bc b9 1f 1a be a8 de af 3d
       -0.11381831 -0.020462535 -0.15051164 0.0858739
0001d0 b1 c9 84 bd b2 c7 9f 3d f7 f5 11 3e f7 1a ce bc
       -0.06483782 0.07801761 0.14253984 -0.025159342
0001e0 9e a7 dd bd 94 bc 0a 3e 60 14 f5 3d f6 8e 92 be
       -0.10822986 0.135485 0.11966777 -0.28624696
0001f0 92 f1 3d 3c 88 86 8f bc da f7 05 3e 00 9c 2a 3e
       0.011593239 -0.017520204 0.13082829 0.16661072
000200 0a 05 0c 3e 89 1f 76 3e 2c 0f 6e bd 36 45 5a 3c
       0.13673797 0.24035467 -0.058119938 0.013322165
000210 ab 7b b9 3d 81 e2 84 3e 44 42 8e bd 55 5a f6 3d
       0.09056791 0.2595406 -0.06946233 0.12028948
000220 de bf 9d bd 7f 09 20 3e 53 3b 1f bb 36 8f 1a be
       -0.077026114 0.15628622 -0.0024296835 -0.15093693
000230 d0 d7 c8 3d 95 c5 1a 3e 24 3e 5e 3e ed 69 06 3e
       0.09806788 0.15114434 0.21703392 0.13126345
000240 b0 e2 2c be 7a 67 1a 3d bd 98 89 3e b1 f8 59 3d
       -0.1688335 0.03769634 0.26874343 0.053215686
000250 47 dc 83 be 61 38 9d 3e 0e 47 9e 3e 7e 81 b7 3e
       -0.25753996 0.30707076 0.30913585 0.35840982
000260 48 fe ba 3e e1 61 8a 3c 78 37 90 3d 8f 6f cf 3c
       0.36522126 0.016892375 0.0704183 0.02532175
000270 b7 65 85 bd da cd f0 3d af 1c ef 3d b0 4a 58 bd
       -0.06513541 0.11758013 0.11675393 -0.052805603
000280 16 1e 71 3e e3 85 44 3e f3 bb af 3e e1 81 b5 be
       0.23546633 0.19191699 0.3432308 -0.35450652
000290 f1 8c 74 3e 50 d1 0f 3e 6c d2 72 3e 06 88 e7 3d
       0.2388189 0.1404469 0.23713082 0.11305241
0002a0 4f cd 26 3e f6 09 aa 3d 20 78 bc bd 57 77 02 be
       0.16289257 0.08302681 -0.092025995 -0.12740837
0002b0 46 f4 4e bd a2 48 b4 bd 70 21 a6 be c6 41 48 bb
       -0.050525926 -0.08802916 -0.32447386 -0.0030556782
0002c0 c6 4b 95 be ca ef b6 3e 10 77 82 3e 22 fb 56 3e
       -0.29159373 0.3572982 0.25481462 0.20994237
0002d0 37 f5 2c be 6c a9 05 3e 21 4f a6 3e 73 a1 d1 3e
       -0.16890417 0.1305291 0.32482246 0.40943488
0002e0 b6 50 dd 3e 56 31 89 be f6 3d d6 bc 59 fd 82 3e
       0.4322564 -0.26795453 -0.026152592 0.25583914
0002f0 ea 1a 8a be 40 d8 8f 3e ce 2f e7 3d db ae 61 3e
       -0.2697366 0.28094673 0.11288415 0.22039358
000300 c1 8c f1 bc 9f 40 a2 3e e8 ae af 3e 04 36 ca 3d
       -0.029486062 0.31689927 0.3431313 0.09873584
000310 20 0f 0e 3e 6d e6 69 3e 0c aa 41 3e de 81 db 3b
       0.13872957 0.22841807 0.18912524 0.006698831
000320 9b 78 4d 3e 99 24 16 3c 52 92 84 3e 75 35 13 3e
       0.20065539 0.009163999 0.25892884 0.14375861
000330 5f 52 c8 bd 82 b7 c9 3d 55 90 ca 3c 2d 5a c4 3c
       -0.09781336 0.098494545 0.024727026 0.02396878
000340 09 b6 81 be ac ff 08 3d 0b 06 7e 3e 8d 12 1f 3e
       -0.25334194 0.033446953 0.24806993 0.1553442
000350 77 03 9c 3d c0 4b 31 3e 04 05 a7 3c fe fb 2d 3e
       0.07617848 0.17314053 0.020388134 0.16990659
000360 50 a2 06 3c ed 0f 1f 3e a8 58 84 3d b0 54 ca bd
       0.008217409 0.15533419 0.06462222 -0.09879434
000370 56 84 e4 bd 28 36 7b 3e cb 5c 32 bd ac 15 de bd
       -0.111580536 0.24532378 -0.043545526 -0.10843977
000380 a2 b2 a4 bd ec 9c 1c 3d db c0 69 3e 54 28 b3 3e
       -0.08041884 0.03823559 0.22827475 0.34991705
000390 d8 af dc 3d d8 67 3d 3d 04 43 a4 3e 7d a3 ae 3d
       0.10775727 0.04624161 0.3208238 0.08527277
0003a0 96 9b bb 3e 9b c9 4f be f3 4d 85 3e 6c c2 91 3e
       0.3664214 -0.2029175 0.26036033 0.28468645
0003b0 f7 ce 2e be 47 7f 2b 3e 11 62 72 3d d5 c1 3d 3e
       -0.17071138 0.16747771 0.059175555 0.18530972
0003c0 7b 36 b8 be 86 db 99 3e e3 50 df bd 42 43 06 3e
       -0.35979065 0.30050296 -0.109041 0.13111594
0003d0 95 0f 63 be 5d 73 ae 3e e4 a7 8d bd f9 d4 03 3d
       -0.22173913 0.3407239 -0.06916788 0.03218553
0003e0 b6 d7 cd 3d 15 55 64 bd ca 5b 63 3e a7 db 19 3e
       0.10050909 -0.055745203 0.22202983 0.15025197
0003f0 14 e4 d9 bd 6f f6 b9 3c 70 bd d5 3d cb 29 71 3e
       -0.106392056 0.022700517 0.10436523 0.23551099

lstm.bias_ih_l1 f4 [64]
000000 0c 8a b2 3e bc f0 a8 3e d4 6d 21 bd 3c 8b 64 3e
       0.34870946 0.32996166 -0.03941138 0.22318739
000010 2f 75 2c 3e af 4f 65 3e 79 29 d3 3d 27 47 d4 3d
       0.16841577 0.22393678 0.10310645 0.10365134
000020 96 9c c8 3d 5f 9e 10 3e 04 2c 08 3e f5 a1 7c 3d
       0.097954914 0.14122914 0.1329804 0.06167789
000030 06 ce 86 3e 46 eb 1c 3c 67 c3 52 3d 53 6e 3e 3e
       0.26329058 0.009577578 0.05145588 0.18596773
000040 15 13 5c 3c b3 64 d1 bd 93 94 8c 3d 8a 95 32 3e
       0.013432284 -0.10224285 0.06864276 0.17439857
000050 a7 69 56 3d 21 4f 80 3b 05 79 10 3e 6c 77 29 3e
       0.05234685 0.003915683 0.14108665 0.16549462
000060 97 f5 bf bd e2 33 1d 3e 50 99 02 3e 1a 76 87 3e
       -0.093730144 0.15351823 0.12753797 0.26457292
000070 96 99 6b bb 5d f7 72 bd ba ab 0b bd 60 96 fd bd
       -0.0035949699 -0.059317935 -0.034099318 -0.123821974
000080 93 6c 19 be 1b 82 c8 bc de 49 45 3e 1d 9d b7 3d
       -0.14982824 -0.024476102 0.1926646 0.08965514
000090 17 20 67 be d6 f3 93 3d c8 5c 62 3e 59 18 51 be
       -0.22570835 0.072242424 0.22105706 -0.20419444
0000a0 c1 2b 8b 3e 6c c4 47 be 31 0a 7a 3e 3f 51 f6 3d
       0.2718182 -0.19508523 0.2441795 0.12027215
0000b0 cb f2 67 bd 04 b6 1b 3e 74 af 12 be 9e 9b 14 be
       -0.05662803 0.15206152 -0.14324743 -0.14512488
0000c0 11 83 40 3e ef bd 75 b9 97 1e a7 bd 21 df cf 3e
       0.18799998 -0.00023435777 -0.081601314 0.4059992
0000d0 ef 0c 2d 3e da 60 b0 3e f9 0c 7f 3e b0 47 d1 3d
       0.16899465 0.34448892 0.24907292 0.102187514
0000e0 7b 5f d3 bd 3f 94 7f bd 5e 30 66 3c a0 24 6e 3e
       -0.10320946 -0.062397238 0.014049618 0.23256159
0000f0 36 1f 49 bd fc 6c bd 3e d2 6a 74 3e 4b 18 18 bd
       -0.04910203 0.3699721 0.23868874 -0.037132543

lstm.bias_hh_l1 f4 [64]
000000 5b bd 9d 3e 0b c9 bd bd cf 96 c0 bd ea fd af bd
       0.3080853 -0.092668615 -0.094037645 -0.08593352
000010 02 94 56 3c 50 21 0a be 2d f2 da 3d c2 db 47 be
       0.013096811 -0.1348927 0.106907226 -0.19517425
000020 b5 5a ff bd 8a f7 21 3e e2 ea 0f bd b7 99 fe 3d
       -0.12468473 0.15817085 -0.03513611 0.124316625
000030 59 02 11 3e de 27 fa 3d 9a fa 08 bd ff 4d 00 bd
       0.14161052 0.12214635 -0.033442117 -0.031324383
000040 f6 de 56 3e f1 59 91 3d 1f 97 e6 3d dc 76 1b 3e
       0.2098349 0.07097233 0.11259293 0.1518206
000050 bb ff ee 3d db 92 ec 3d 57 d1 50 be de 97 fb bd
       0.116698705 0.11551448 -0.20392357 -0.12284826
000060 43 dc 05 be f5 d6 71 3e 87 95 68 3e b8 38 48 be
       -0.13072304 0.23617156 0.2271329 -0.19552886
000070 02 1e bd bd 3e 43 64 bc 33 e5 53 3e b2 9a 2c be
       -0.09234239 -0.013932047 0.20692901 -0.16855887
000080 8b 5d 2b 3c 95 48 d1 3d 39 10 2d be 75 21 6d bd
       0.010459314 0.10218922 -0.1690072 -0.057893235
000090 f8 b8 c1 3d 0e 79 6b 3e 04 40 08 3e 32 aa 8b 3e
       0.09459108 0.22995397 0.1330567 0.27278286
0000a0 29 0c cd bd ad 6b bc bd 83 bb fd 3c 9c 8c 6b 3e
       -0.10012085 -0.09200225 0.030973202 0.23002857
0000b0 af e1 4d be d6 23 3c 3d ee 09 2f 3e 66 12 10 be
       -0.20105623 0.045932613 0.17093632 -0.14069518
0000c0 b4 04 b7 3d 65 01 ca bd 5e 61 96 3e 1c 27 85 3e
       0.08936444 -0.09863547 0.2937116 0.260064
0000d0 a7 df 62 3e ad 89 73 3e c7 3c 1a 3e 08 ab 6b 3d
       0.22155629 0.23782988 0.15062247 0.057536155
0000e0 5c 4b 64 3e 73 89 d6 bc 15 11 36 3e 8d c2 dc 3e
       0.22294372 -0.026188588 0.17779954 0.4311718
0000f0 f3 6e 69 3e 2e f3 c6 3d 9a b7 01 3e bc ba a0 3e
       0.2279623 0.097143516 0.12667695 0.31392467

fc.weight f4 [2, 16]
000000 03 53 b8 be c0 1c 80 be 28 f7 bc be 06 48 92 3e
       -0.36000833 -0.25021935 -0.36907315 0.28570575
000010 ed ec ae be 5d 72 2b 3e 22 b1 48 be c5 1b a0 be
       -0.34165135 0.16742845 -0.19598821 -0.31271186
000020 b6 f4 94 3e 85 e7 81 3e 03 28 8e be 1f bc e7 3e
       0.2909295 0.25371948 -0.27764902 0.45260713
000030 35 cb c1 be 76 70 cb be 36 be b0 3e 5b 10 92 be
       -0.37850347 -0.39734238 0.3452012 -0.28528103
000040 ba be 81 3e 6f eb 6d 3e fa e6 a0 3e 78 ba bd be
       0.25340825 0.23234342 0.3142622 -0.37056327
000050 5b 07 5f 3d a3 29 3c be 2f 3c 4f 3c f9 87 9e 3d
       0.054450374 -0.18375258 0.012648626 0.077407785
000060 49 71 21 3d 6c 51 c0 be 9c 75 18 3e 63 66 a1 bd
       0.039414678 -0.3756212 0.14888614 -0.07880857
000070 f0 89 0a 3e bd 46 3e 3e 90 37 fc bd 74 cd 68 3e
       0.13529181 0.18581672 -0.12315285 0.22734624

fc.bias f4 [2]
000000 d1 a1 26 3e 0e e0 a7 3c
       0.16272666 0.02049258
