src/main/resources/ML/LSTM/RNN_checkpoint.pth (torch, 87962 bytes, 10 tensors)

lstm.weight_ih_l0 f4 [128, 64]
0.024760019 -0.093935326 0.13772699 -0.0049072537 0.036682054 0.12666345 0.089711 -0.18392925
0.1422013 -0.10997596 -0.15964332 -0.11310543 0.14093545 0.03309414 0.11692924 0.067381516
-0.05168811 0.10159593 -0.02873317 -0.026371878 0.10865158 -0.06662449 -0.0023255097 -0.07947101
-0.24694264 -0.011313537 -0.010053807 -0.14828819 -0.1145921 0.07280666 -0.16126311 -0.15640126
-0.13451107 -0.01497258 -0.05050371 0.03167888 -0.10116992 -0.1979295 -0.10203516 -0.01515431
-0.18533245 0.05466787 -0.14255545 -0.03698921 -0.16915767 -0.09777056 -0.023710437 0.06689488
-0.10228675 -0.06396948 0.23713148 0.12889121 0.12464392 -0.0733847 0.10839808 0.18262719
0.22288352 0.21370462 -0.034406975 0.11354811 0.01642861 -0.10767878 0.2094841 -0.13980821
0.1275666 0.039543044 -0.031641375 0.025006121 0.029612448 -0.13134149 0.03447885 -0.20084995
-0.04525964 -0.112011194 0.09774775 -0.043930985 0.1120472 -0.17785728 -0.2670731 -0.04098072
-0.22454062 0.054672197 -0.012909953 -0.012138861 -0.18383738 0.016643928 0.070543595 0.05335678
0.010167626 -0.08807343 0.20584247 -0.011132194 0.009727849 0.0012360872 0.11804171 0.03267109
-0.10171453 0.067268334 0.15712743 0.15166058 -0.13891204 0.15559374 -0.021521615 0.2753308
0.022731492 0.1568659 -0.0066016484 -0.08293979 0.24318913 0.19248724 0.029064974 0.1569567
0.07996637 0.02560595 0.08305258 0.06012479 0.19007125 0.24353392 0.073869325 -0.084392115
0.10730299 -0.18401909 0.19720544 -0.14277649 -0.07979412 -0.119314626 0.20258278 0.13029104
-0.0689292 0.016663825 -0.065044686 -0.12915322 -0.015631575 0.12112073 0.004739625 0.13737401
0.06637828 -0.14129412 0.02827882 -0.14498283 -0.18756698 0.014584236 -0.16735497 -0.10615777
0.03737898 0.025670202 -0.18558156 -0.10231327 -0.17012055 -0.0061601186 0.03745001 0.13228917
0.11920424 0.11080193 0.061443858 -0.04228349 0.19088235 -0.1487256 0.10606103 0.023151701
0.12806912 0.19102146 0.1583134 0.06647708 -0.052381117 -0.1452508 0.10528643 0.17993331
-0.045396853 0.12063651 -0.1546185 0.119684204 -0.119229764 -0.01868895 0.13835444 -0.12147669
0.14405039 -0.09950561 -0.1365593 -0.118913755 -0.10740515 0.1069517 0.046024997 -0.010846925
-0.08554353 -0.10090769 0.10011226 -0.101586886 -0.16013797 0.12013179 0.0074501885 -0.084127836
0.017643694 0.12213148 -0.08965796 -0.09961003 -0.07346567 0.15572062 -0.07884349 0.020864332
-0.16624673 0.14214097 0.09149711 0.0605588 0.11776114 0.13205722 0.13822976 -0.18604364
-0.03503716 -0.20842023 -0.027036315 -0.04781261 -0.18182382 0.12602364 0.08286535 0.12856254
-0.23017655 -0.13570319 -0.21086492 -0.23395686 -0.040742937 0.041177463 -0.20310907 0.05209087
-0.037163835 -0.1838141 0.10095018 0.028810227 -0.12993428 0.10084683 -0.058299955 -0.030174471
-0.06781628 -0.19607 -0.07991501 0.13836633 0.04185718 0.08074807 -0.08424939 0.12631029
0.18222871 -0.024662407 0.22209273 -0.007956644 0.21565008 0.21510023 -0.0631732 0.006879144
-0.10481598 -0.01808401 0.08677918 0.010219461 0.13374455 0.0097140055 0.00062179903 0.16676673
00000000: 86d5 ca3c 2a61 c0bd 4e08 0d3e 07cd a0bb
00000010: ec3f 163d 10b4 013e 67ba b73d f357 3cbe
00000020: 389d 113e 133b e1bd 8a79 23be d2a3 e7bd
00000030: 6251 103e b98d 073d 9978 ef3d 52ff 893d
00000040: e9b6 53bd 8711 d03d d361 ebbc d609 d8bc
00000050: b884 de3d 6c72 88bd 9467 18bb b2c1 a2bd
00000060: 88de 7cbe 6a5c 39bc b9b8 24bc dcd8 17be
00000070: 43af eabd a81b 953d 2822 25be a727 20be
00000080: 45bd 09be 8d4f 75bc fadc 4ebd b7c1 013d
00000090: 2d32 cfbd 08ae 4abe cff7 d0bd c849 78bc
000000a0: cac7 3dbe 6beb 5f3d 0efa 11be ff81 17bd
000000b0: ab37 2dbe ee3b c8bd 643c c2bc 2f00 893d
000000c0: b77b d1bd 6e02 83bd 98d2 723e 0ffc 033e
000000d0: 5045 ff3d b84a 96bd d0ff dd3d 9f02 3b3e
000000e0: 943b 643e 62d5 5a3e 54ee 0cbd e98b e83d
000000f0: 4b95 863c b186 dcbd 0083 563e e229 0fbe
00000100: d2a0 023e e3f7 213d 639a 01bd a3d9 cc3c
00000110: ce95 f23c 627e 06be b239 0d3d 9cab 4dbe
00000120: 2c62 39bd 2066 e5bd f92f c83d faf0 33bd
00000130: 0179 e53d 3820 36be cebd 88be 66db 27bd
00000140: faed 65be f4ef 5f3d 4484 53bc 13e2 46bc
00000150: de3f 3cbe d958 883c 2979 903d a48c 5a3d
00000160: 1d96 263c d85f b4bd 5ec8 523e ce63 36bc
00000170: 8e61 1f3c 3404 a23a dabf f13d 1fd2 053d
00000180: b54f d0bd fbc3 893d 03e6 203e e94c 1b3e
00000190: f53e 0ebe f753 1f3e 194e b0bc 29f8 8c3e
000001a0: 6537 ba3c 74a1 203e a452 d8bb 56dc a9bd
000001b0: 9206 793e 601b 453e ab19 ee3c 42b9 203e
000001c0: 68c5 a33d 92c3 d13c 7917 aa3d 6945 763d
000001d0: 0aa2 423e f560 793e cd48 973d c6d5 acbd
000001e0: acc1 db3d 806f 3cbe 39f0 493e 0034 12be
000001f0: 196b a3bd 3a5b f4bd dc71 4f3e 046b 053e
00000200: c12a 8dbd 9382 883c 2636 85bd be40 04be
00000210: ca0d 80bc 250e f83d db4e 9b3b c6ab 0c3e
00000220: 56f1 873d 68af 10be fca8 e73c 6176 14be
00000230: 8f11 40be b8f2 6e3c 1a5f 2bbe 3f69 d9bd
00000240: b41a 193d 514a d23c 1809 3ebe 9f89 d1bd
00000250: 1534 2ebe d2da c9bb 2f65 193d d076 073e
00000260: 5a21 f43d 1fec e23d 8eac 7b3d 7431 2dbd
00000270: aa76 433e 864b 18be 8636 d93d a3a8 bd3c
00000280: 8d24 033e 219b 433e e81c 223e 2325 883d
00000290: 958d 56bd a0bc 14be 69a0 d73d 7040 383e
000002a0: 0df2 39bd 4610 f73d 5054 1ebe fe1c f53d
000002b0: bc2e f4bd 9219 99bc c9ac 0d3e c5c8 f8bd
000002c0: f281 133e 99c9 cbbd 33d6 0bbe 0e89 f3bd
000002d0: 3bf7 dbbd 7e09 db3d b584 3c3d 4db7 31bc
000002e0: 7231 afbd b1a8 cebd a807 cd3d c90c d0bd
000002f0: 35fb 23be a807 f63d b620 f43b 374b acbd
00000300: 8289 903c 1220 fa3d 989e b7bd 5800 ccbd
00000310: 2b75 96bd 3a75 1f3e b278 a1bd adeb aa3c
00000320: 953c 2abe 678d 113e d662 bb3d 810c 783d
00000330: c12c f13d 023a 073e 1a8c 0d3e 3982 3ebe
00000340: 2083 0fbd 1d6c 55be 437b ddbc 28d7 43bd
00000350: 0630 3abe 570c 013e 4fb5 a93d e6a5 033e
00000360: 67b3 6bbe c7f5 0abe f9ec 57be 6392 6fbe
00000370: 11e2 26bd b3a9 283d d3fb 4fbe 3c5d 553d
00000380: 1b39 18bd c339 3cbe f8be ce3d 6d03 ec3c
00000390: 7e0d 05be c888 ce3d efcb 6ebd 7430 f7bc
000003a0: 43e3 8abd 93c6 48be 7baa a3bd e7af 0d3e
000003b0: 6f72 2b3d 3e5f a53d f28a acbd 7c57 013e
000003c0: 2a9a 3a3e d108 cabc 476c 633e 955c 02bc
000003d0: 60d3 5c3e 3c43 5c3e f360 81bd 716a e13b
000003e0: c3a9 d6bd eb24 94bc 48b9 b13d 876f 273c
000003f0: 55f4 083e 7e27 1f3c 3a00 233a e6c4 2a3e

lstm.weight_hh_l0 f4 [128, 32]
-0.06433489 0.16732241 -0.1138076 -0.07510969 -0.22325571 0.06141934 0.002702788 0.047311943
-0.1958266 0.0646741 -0.1033873 0.1330539 -0.059601784 -0.10066341 -0.025064068 -0.09754842
-0.14496914 -0.07079374 -0.047159836 -0.14615513 0.15016736 -0.027900176 0.039911848 0.1765418
-0.05532254 -0.05631159 0.023564076 -0.12086649 -0.11959565 -0.102458686 0.060252625 -0.076452434
0.14249817 -0.1625471 -0.10288459 0.16226982 -0.021199703 0.18576615 -0.0022316985 0.037575662
0.003404415 0.12341568 -0.1530183 0.29545397 -0.028038519 0.10410644 0.18922217 0.0048931367
-0.10157355 -0.09468808 -0.16195746 -0.023826279 -0.1731406 -0.10777517 -0.22872502 -0.027732903
-0.2832618 0.12883587 0.14609793 -0.15433119 -0.11205499 -0.117196724 0.040414505 0.18374258
-0.1694361 -0.19575843 -0.04158774 0.032927036 0.07756716 0.14288022 0.027916 -0.032017898
-0.06188761 0.022554941 -0.071299456 0.24928473 0.036042284 0.1613928 -0.039537515 -0.1369296
0.096330225 -0.045247875 -0.0008391784 -0.18161978 0.028973777 -0.12552561 0.18394622 -0.05898087
-0.10587219 0.1300432 -0.15541345 -0.116510145 0.13856086 0.023273505 -0.114590585 0.07624272
-0.0843033 0.15926346 -0.027318196 0.12127732 -0.14091799 -0.053918328 -0.054278616 0.20433293
-0.17088374 0.08639749 0.07315857 -0.054530054 -0.11024523 -0.0027519092 -0.12840354 -0.022232028
0.0068680686 0.04504116 -0.09701846 0.13534914 0.2179459 -0.02844508 -0.17281888 0.086326756
0.12219574 0.14703044 -0.023488425 0.041047417 -0.19556648 -0.022842841 0.044571113 0.0033624766
-0.019629234 0.06387955 0.040604427 -0.094356515 -0.10707334 0.083089285 0.08030973 0.1919052
0.054597512 -0.045693234 0.03928575 0.04348844 0.067732394 0.23862965 0.15035298 -0.2429458
0.043843515 0.07216303 -0.14925458 0.10708384 -0.07563233 0.079121955 0.097308695 0.12089914
0.13398816 -0.09600632 -0.117200986 0.11890076 -0.14381751 0.105762884 0.1529631 0.031049924
-0.0882074 0.0124190925 -0.07669416 -0.101114474 -0.073940605 0.11517679 -0.105653115 0.23167175
-0.06046009 -0.053650305 0.107245795 0.052664448 0.1763385 -0.04697439 0.17395385 -0.0920085
-0.14924583 -0.1472212 -0.09754463 0.02595417 0.008029834 -0.17514263 -0.1374187 -0.041815598
-0.15284474 0.16835463 -0.18673874 0.014607594 -0.024105294 -0.023471914 -0.10201055 0.00926788
0.37713763 -0.019061223 -0.06160963 0.17096081 -0.0073927334 -0.24306299 0.115029536 -0.03807373
-0.18486382 -0.31088206 0.21277 0.12614512 0.23493905 0.26648727 0.3708848 -0.13053252
-0.19820347 -0.086542465 -0.26901034 -0.090102464 0.14763601 -0.2663194 -0.25671202 0.088257
-0.1303814 0.239296 -0.35015544 -0.03984448 -0.09647477 0.1848917 0.119305596 -0.033722002
-0.013095271 0.18151937 -0.22968076 0.21010122 -0.15322243 0.07873263 0.098489106 0.082877405
0.026620178 -0.0031378735 -0.045098107 0.020705635 0.14250135 -0.1099926 0.13117462 -0.13411652
0.0056207804 0.035665534 0.01229049 -0.0110232765 0.020026792 -0.16084696 -0.0807275 -0.061432652
0.04786723 -0.08234335 -0.17583215 -0.07098481 -0.19550098 -0.038890246 -0.10717284 0.054870877
00000000: 03c2 83bd 9156 2b3e f613 e9bd 1cd3 99bd
00000010: 259d 64be d992 7b3d 4221 313b 2bca 413d
00000020: c586 48be db73 843d b9bc d3bd 483f 083e
00000030: 0021 74bd 9e28 cebd 2953 cdbc 77c7 c7bd
00000040: ca72 14be 4ffc 90bd ac2a 41bd b1a9 15be
00000050: 79c5 193e e98e e4bc 9b7a 233d 60c7 343e
00000060: e399 62bd fba6 66bd 7309 c13c da88 f7bd
00000070: 90ee f4bd dcd5 d1bd 75cb 763d 1893 9cbd
00000080: 0aeb 113e bf72 26be 28b5 d2bd 0f2a 263e
00000090: 00ab adbc 7b39 3e3e b041 12bb f0e8 193d
000000a0: 9b1c 5f3b 5cc1 fc3d d4b0 1cbe be45 973e
000000b0: 09b1 e5bc c235 d53d 75c3 413e 9b56 a03b
000000c0: cb05 d0bd d3eb c1bd 2dd8 25be 542f c3bc
000000d0: c54b 31be 3ab9 dcbd e436 6abe 1d30 e3bc
000000e0: b107 91be 8ded 033e b29a 153e ff08 1ebe
000000f0: 167d e5bd d604 f0bd ae89 253d 0427 3c3e
00000100: a880 2dbe e674 48be e857 2abd 80de 063d
00000110: 88db 9e3d 314f 123e 18b0 e43c 3325 03bd
00000120: dd7d 7dbd 24c5 b83c 7305 92bd 7f44 7f3e
00000130: 13a1 133d 2744 253e 17f2 21bd 4637 0cbe
00000140: c848 c53d d655 39bd 4ffc 5bba 89fa 39be
00000150: 6a5a ed3c c989 00be 665c 3c3e ed95 71bd
00000160: 85d3 d8bd 0b2a 053e b424 1fbe df9c eebd
00000170: e6e2 0d3e 14a8 be3c 78ae eabd 2525 9c3d
00000180: 35a7 acbd f615 233e 69ca dfbc 3e60 f83d
00000190: ce4c 10be 77d9 5cbd 4153 5ebd a73c 513e
000001a0: 26fc 2ebe 2bf1 b03d 29d4 953d e85a 5fbd
000001b0: 40c8 e1bd 6059 34bb 387c 03be f11f b6bc
000001c0: 890d e13b 147d 383d 9db1 c6bd f798 0a3e
000001d0: 362d 5f3e a805 e9bc 6ff7 30be 15cc b03d
000001e0: c341 fa3d 268f 163e cc6a c0bc 5621 283d
000001f0: 9442 48be e920 bbbc 3390 363d ff5c 5c3b
00000200: 7dcd a0bc 48d3 823d d450 263d fd3d c1bd
00000210: 4449 dbbd b72a aa3d 6d79 a43d cc82 443e
00000220: a4a1 5f3d d428 3bbd 18ea 203d ef20 323d
00000230: 48b7 8a3d 555b 743e 22f6 193e c9c6 78be
00000240: 4295 333d 36ca 933d 31d6 18be c64e db3d
00000250: 1fe5 9abd b10a a23d c849 c73d f899 f73d
00000260: 3134 093e f69e c4bd 1207 f0bd 3e82 f33d
00000270: e644 13be 369a d83d 5ca2 1c3e 695c fe3c
00000280: 15a6 b4bd 7379 4b3c d411 9dbd 1b15 cfbd
00000290: 2c6e 97bd cfe1 eb3d a960 d8bd 5c3b 6d3e
000002a0: 00a5 77bd 6cc0 5bbd afa3 db3d adb6 573d
000002b0: 1492 343e 3868 40bd f520 323e f46e bcbd
000002c0: e6d3 18be 27c1 16be 7bc5 c7bd d79d d43c
000002d0: 918f 033c 9758 33be 7db7 0cbe d546 2bbd
000002e0: 5583 1cbe 2865 2c3e 7138 3fbe b154 6f3c
000002f0: 7778 c5bc 2c48 c0bc e8ea d0bd 4ed8 173c
00000300: 2f18 c13e 4826 9cbc 615a 7cbd 5a10 2f3e
00000310: be3e f2bb 81e5 78be 9b94 eb3d 33f3 1bbd
00000320: f14c 3dbe ef2b 9fbe 61e0 593e 302c 013e
00000330: dd93 703e 0571 883e 9de4 bd3e 51aa 05be
00000340: daf5 4abe 2d3d b1bd b9bb 89be a487 b8bd
00000350: e52d 173e 045b 88be c26f 83be 16c0 b43d
00000360: b482 05be 030a 753e 9347 b3be f733 23bd
00000370: 9094 c5bd 4054 3d3e 7e56 f43d 1520 0abd
00000380: 8c8d 56bc 37e0 393e 6f31 6bbe c624 573e
00000390: 57e6 1cbe 933e a13d a8b4 c93d a1bb a93d
000003a0: 8f12 da3c c8a4 4dbb cbb8 38bd dd9e a93c
000003b0: e0eb 113e cd43 e1bd a452 063e d755 09be
000003c0: 862e b83b 0616 123d 0d5e 493c f99a 34bc
000003d0: 3a0f a43c 11b5 24be 7654 a5bd cea0 7bbd
000003e0: 6e10 443d a1a3 a8bd 580d 34be 7c60 91bd
000003f0: 6931 48be 614b 1fbd 6f7d dbbd 49c0 603d

lstm.bias_ih_l0 f4 [128]
0.030954521 0.17594004 0.13224374 0.11254324 0.051333282 0.18063027 0.18285851 0.15198787
0.017521344 -0.034105033 0.034302384 0.06674452 0.11361249 0.06350122 0.22871952 -0.0992479
-0.018530263 -0.013748761 0.22563538 0.11919218 0.18589973 0.25606185 0.1830787 -0.1419455
0.148163 -0.08136181 0.19951248 0.11789562 -0.042155895 0.18576051 0.23069818 0.123415925
0.0936935 -0.020930305 -0.010896413 -0.106063336 0.0040846886 -0.058407083 -0.0075514414 0.20330742
0.09173664 -0.16170745 0.0028159062 0.112284504 0.13674262 0.011661155 -0.11919071 0.16278496
0.028579809 0.04648526 -0.018923761 0.068291284 0.027015107 0.083662994 0.034480635 -0.032804746
0.16849133 0.04258957 -0.12100775 -0.086844526 -0.0005116354 0.056418814 -0.02667767 0.154226
0.06803426 0.050031632 -0.08559772 0.06182969 -0.042587932 0.13851139 -0.048042573 -0.003022251
-0.15124485 -0.10382641 -0.15594576 0.17874648 -0.028877083 0.09616661 -0.068392575 -0.12800123
-0.0947106 -0.12088069 -0.17267121 0.08665029 0.13158044 0.13389435 0.07833561 0.10585111
-0.120508164 0.12260431 -0.09955639 -0.14913684 -0.014496918 0.12581286 0.13575085 -0.005362599
-0.018915948 0.08129168 0.057996493 0.10555409 0.017278304 0.11227858 0.19161898 0.16875562
0.21463652 -0.05192585 0.15247637 0.1676903 -0.0027403205 -0.015481394 -0.123017505 -0.08195416
0.08101284 -0.0129266735 0.16622046 0.25493369 -0.0035316125 -0.058910638 0.074742705 -0.020549493
0.10639763 0.13279183 0.10731884 0.032346353 0.066924624 0.07795417 0.254647 -0.08176974
00000000: 5694 fd3c a029 343e e76a 073e 127d e63d
00000010: d942 523d 24f7 383e 433f 3b3e b5a2 1b3e
00000020: ec88 8f3c b8b1 0bbd a880 0c3d 5ab1 883d
00000030: aaad e83d ed0c 823d 7335 6a3e 7c42 cbbd
00000040: c7cc 97bc 7c42 61bc f60c 673e 081b f43d
00000050: 805c 3e3e 8a1a 833e fc78 3b3e 295a 11be
00000060: 0bb8 173e 05a1 a6bd 004d 4c3e 4273 f13d
00000070: a9ab 2cbd 0138 3e3e 253c 6c3e 7dc1 fc3d
00000080: 61e2 bf3d 0876 abbc de86 32bc bc37 d9bd
00000090: dad8 853b 443c 6fbd 1572 f7bb d22f 503e
000000a0: 6be0 bb3d a396 25be 118b 383b 6bf5 e53d
000000b0: 4206 0c3e 6e0e 3f3c 421a f4bd 1ab1 263e
000000c0: 3420 ea3c 5467 3e3d 0106 9bbc 4ddc 8b3d
000000d0: c94e dd3c 8157 ab3d 913b 0d3d 455e 06bd
000000e0: fe88 2c3e 6772 2e3d e9d2 f7bd 8bdb b1bd
000000f0: 451f 06ba 6a17 673d 218b dabc 6ced 1d3e
00000100: 8c55 8b3d f8ed 4c3d dc4d afbd 2141 7d3d
00000110: af70 2ebd eed5 0d3e 4ac8 44bd f510 46bb
00000120: eedf 1abe f1a2 d4bd 3fb0 1fbe 5109 373e
00000130: a28f ecbc 00f3 c43d 6811 8cbd c112 03be
00000140: a2f7 c1bd 4c90 f7bd b9d0 30be b575 b13d
00000150: 06bd 063e 9a1b 093e 6c6e a03d 77c8 d83d
00000160: fccc f6bd f817 fb3d 38e4 cbbd 54b7 18be
00000170: 7b84 6dbc 16d5 003e 4502 0b3e beb8 afbb
00000180: 9ef5 9abc 417c a63d bb8d 6d3d be2c d83d
00000190: 3b8b 8d3c 50f2 e53d c437 443e 46ce 2c3e
000001a0: adc9 5b3e 33b0 54bd c422 1c3e 02b7 2b3e
000001b0: f396 33bb aca5 7dbc 9af0 fbbd 95d7 a7bd
000001c0: 0fea a53d 66ca 53bc b235 2a3e ab86 823e
000001d0: a072 67bb 484c 71bd b412 993d 6957 a8bc
000001e0: 00e7 d93d 95fa 073e fbc9 db3d 9c7d 043d
000001f0: c70f 893d 70a6 9f3d 1761 823e e576 a7bd

lstm.bias_hh_l0 f4 [128]
0.11882608 -0.065572225 -0.15413436 0.19013484 0.06623023 0.077876896 0.009113155 0.13677503
0.10354587 0.031899124 0.1324147 0.100906774 0.19676398 0.099526525 0.0037606244 0.11094275
0.10237546 -0.051080216 0.1250831 -0.00548982 0.140928 0.048930023 0.1977142 -0.10986506
0.012403499 0.05822433 -0.10777783 0.17481245 0.06585185 0.090624146 0.25711417 0.09667655
-0.0032542977 0.07331323 -0.09364113 0.08404804 0.08868469 -0.10175538 -0.0846661 0.1940873
0.0953497 0.10482954 -0.11754645 0.12105792 0.16916364 -0.080454744 -0.049516894 -0.16429614
0.0015700709 -0.10985591 0.120368764 -0.025970362 0.1512808 -0.035843544 -0.07932048 0.030485723
-0.0023645845 0.20165841 0.1844925 0.05876254 -0.15110789 0.122733496 0.016239282 0.0957794
0.067183495 -0.010487791 -0.16029665 -0.04774916 0.10706857 0.032961447 0.123767674 0.17363039
-0.09346127 0.19637743 0.027245821 -0.13771753 -0.050092556 -0.13797982 -0.11813779 -0.08750623
0.08525603 -0.16820125 0.097643465 -0.09252464 0.11583168 -0.1470272 -0.1357279 -0.07296825
-0.035553765 -0.027916308 0.15412892 0.056652624 0.05342312 0.09736827 -0.07671379 0.15136121
0.07936962 0.041165303 -0.15675107 0.093029305 -0.068461046 0.005059205 0.021666447 0.041354496
0.19095065 -0.06001743 0.13243748 0.13164148 -0.06037911 0.18267421 -0.119809344 -0.0033360024
0.13270216 0.12460541 -0.0020577116 0.18522926 -0.018864905 -0.015776418 0.19392177 0.03778685
-0.096673355 -0.10278775 0.14987302 -0.014754296 0.037394296 0.1778816 0.07144309 0.20068763
00000000: 165b f33d bb4a 86bd 66d5 1dbe b5b2 423e
00000010: b7a3 873d ec7d 9f3d 584f 153c c10e 0c3e
00000020: db0f d43d a8a8 023d b897 073e 36a8 ce3d
00000030: 7f7c 493e 90d4 cb3d cf74 763b f435 e33d
00000040: 3aaa d13d 7d39 51bd c915 003e f3e3 b3bb
00000050: 6e4f 103e d96a 483d 9775 4a3e ef00 e1bd
00000060: 0c38 4b3c a37c 6e3d 9fba dcbd 0902 333e
00000070: 56dd 863d 2799 b93d 78a4 833e 5bfe c53d
00000080: 0e46 55bb 3f25 963d ecc6 bfbd 6121 ac3d
00000090: 52a0 b53d 2065 d0bd 6c65 adbd d2be 463e
000000a0: b446 c33d dfb0 d63d 31bc f0bd 37ed f73d
000000b0: 3c39 2d3e 75c5 a4bd 3ad2 4abd 3f3d 28be
000000c0: d6ca cd3a 23fc e0bd e683 f63d ccbf d4bc
000000d0: 5be9 1a3e aed0 12bd c772 a2bd 32bd f93c
000000e0: 25f7 1abb 8b7f 4e3e 9aeb 3c3e fdb0 703d
000000f0: 07bc 1abe b35b fb3d 3e08 853c fd27 c43d
00000100: 8097 893d fcd4 2bbc ce24 24be a094 43bd
00000110: c446 db3d 9502 073d e879 fd3d 2acc 313e
00000120: 9f68 bfbd 2a17 493e a132 df3c d305 0dbe
00000130: da2d 4dbd 954a 0dbe 3af2 f1bd 7736 b3bd
00000140: b79a ae3d f33c 2cbe 4cf9 c73d 8f7d bdbd
00000150: 2939 ed3d 4c8e 16be 41fc 0abe 6170 95bd
00000160: d3a0 11bd beb0 e4bc f9d3 1d3e 950c 683d
00000170: 34d2 5a3d 0469 c73d 1f1c 9dbd 6ffe 1a3e
00000180: 8a8c a23d f39c 283d 5a83 20be 2686 be3d
00000190: 4e35 8cbd b0c7 a53b d57d b13c 5563 293d
000001a0: 9188 433e d6d4 75bd b19d 073e 06cd 063e
000001b0: 1650 77bd f30e 3b3e 9a5e f5bd d5a0 5abb
000001c0: 13e3 073e 1f31 ff3d acda 06bb bdac 3d3e
000001d0: 938a 9abc 8c3d 81bc 6e93 463e 62c6 1a3d
000001e0: aefc c5bd 6282 d2bd 5078 193e 01bc 71bc
000001f0: c32a 193d 9826 363e c150 923d 0f81 4d3e

lstm.weight_ih_l1 f4 [128, 32]
0.011012999 -0.050678663 -0.18976042 -0.13877796 -0.14111106 0.24551697 0.022872148 0.13672432
-0.21477814 -0.051715028 0.059106752 0.020281484 -0.17261495 -0.021669656 0.06535356 0.01647906
0.13161755 -0.077703334 -0.26287434 0.18321383 -0.0087417625 -0.017978687 -0.18584374 -0.08177218
0.045151252 0.13534564 -0.09291403 0.10262171 -0.21190642 0.045872282 -0.028558286 -0.06976562
-0.015612343 0.17567332 -0.24697837 0.26820105 -0.12764956 0.15271032 0.10740879 0.24020822
-0.03292192 0.01788699 0.16063966 -0.07833679 0.14130405 0.28950632 0.14177589 -0.19081569
-0.1326133 -0.28851858 -0.27824205 0.1362653 0.19349465 -0.1508567 -0.043028537 0.009851256
-0.045185547 0.19336571 -0.24050534 0.027344594 -0.31207153 0.1683808 -0.1040979 0.10146474
0.19793782 -0.024542466 -0.1312927 0.07850081 -0.005585446 -0.014969672 -0.059350766 0.025501791
-0.30182055 -0.11548427 0.091788135 0.07654515 0.2823956 0.08270793 0.08515182 -0.10402921
-0.12075486 -0.17644972 -0.19693987 0.037032835 0.20921613 -0.1759308 -0.3058371 0.26261172
-0.23213896 0.07055759 -0.35137013 -0.10984962 -0.11759061 0.286945 0.1469555 0.22437349
0.06593102 -0.026272573 0.016319728 0.3117172 -0.28817764 0.08371063 0.054338537 -0.02965092
-0.19631194 -0.29473487 0.17932253 -0.1500415 0.2791464 0.27248177 0.09971724 -0.017141728
0.040655363 -0.29386982 -0.19617318 -0.13660997 0.078731954 -0.011923331 -0.27965266 0.12838219
-0.20083186 0.2044651 -0.112530254 -0.11222051 -0.26802757 0.25846338 -0.0077878707 0.25870794
0.20962441 0.0200616 0.016286125 0.22715226 -0.024141222 -0.0137108145 -0.18079968 -0.0029611404
0.05411123 -0.089307584 -0.044665046 -0.20862307 -0.07582889 -0.030810162 0.21448626 -0.08271026
0.0098009715 -0.19481094 -0.2615081 0.14430512 0.20579967 -0.13834521 0.06509866 0.23434927
-0.14276806 0.04475941 -0.09913483 -0.030961994 -0.2262151 0.08984818 0.07081116 0.06969256
0.15843917 -0.03531352 -0.30773944 0.18896548 -0.11906604 -0.0080567775 0.21782777 0.010361988
0.012823321 -0.0068378923 0.21958096 0.06296659 -0.012032965 0.28068566 0.1886891 0.004423754
-0.12649578 -0.21282317 -0.13076366 -0.01207796 0.2518623 -0.12447705 -0.31988594 0.05388834
-0.15586315 0.18143238 -0.3106334 -0.10738596 -0.15953825 -0.005665048 -0.051440563 0.26325393
0.21372 -0.088362105 -0.11533267 0.06647034 -0.19969897 -0.29200846 0.074248254 0.17843772
-0.11239649 -0.26980254 0.25406387 0.17511222 0.092938304 0.1153473 0.18901496 0.0071324683
-0.04521063 -0.17723252 -0.013513913 -0.1563942 0.21957184 -0.062058207 -0.13591482 0.34517273
-0.06001695 0.21200384 -0.34118554 -0.3632715 -0.1206626 0.32950214 0.058931902 0.20713024
-0.016581172 -0.12858245 -0.2415722 0.20614846 -0.26087308 -0.04603175 0.056670226 0.22218268
-0.112195805 -0.3478674 0.11413384 -0.084213495 0.17536187 -0.031444017 0.21810281 -0.1921276
-0.11363338 -0.13125761 0.0006033702 -0.075945005 -0.037513968 -0.14741768 -0.047031302 0.15641984
-0.22347887 0.12937577 -0.108729124 -0.10268424 -0.08929148 0.07107789 0.08351269 0.12726037
00000000: de6f 343c 6e94 4fbd 8e50 42be cf1b 0ebe
00000010: 6b7f 10be cd68 7b3e 5f5e bb3c 7601 0c3e
00000020: cdee 5bbe 23d3 53bd ec19 723d 5b25 a63c
00000030: f9c1 30be 9084 b1bc 16d8 853d 18ff 863c
00000040: c0c6 063e ed22 9fbd 7797 86be 689c 3b3e
00000050: 9c39 0fbc 0a48 93bc d24d 3ebe 2c78 a7bd
00000060: 85f0 383d 0c98 0a3e b649 bebd 552b d23d
00000070: fffd 58be 93e4 3b3d 11f3 e9bc 47e1 8ebd
00000080: eaca 7fbc b5e3 333e e6e7 7cbe a651 893e
00000090: 91b6 02be 1860 1c3e 24f9 db3d 25f9 753e
000000a0: 23d9 06bd bd87 923c b97e 243e 0a6f a0bd
000000b0: 02b2 103e 2c3a 943e b32d 113e 3065 43be
000000c0: c8cb 07be b5b8 93be be75 8ebe 2189 0b3e
000000d0: 7623 463e 2e7a 1abe b13e 30bd 2a67 213c
000000e0: 7b14 39bd a901 463e 0847 76be c501 e03c
000000f0: d7c7 9fbe 046c 2c3e 4831 d5bd bfcc cf3d
00000100: 36b0 4a3e 480d c9bc 9871 06be 08c5 a03d
00000110: 1e06 b7bb 5b43 75bc ca19 73bd 22e9 d03c
00000120: 3988 9abe 0483 ecbd 6bfb bb3d b4c3 9c3d
00000130: 2896 903e c662 a93d 1464 ae3d 440d d5bd
00000140: 534e f7bd 3caf 34be 9baa 49be beaf 173d
00000150: c13c 563e 3427 34be ae96 9cbe 0b75 863e
00000160: d6b5 6dbe 7f80 903d c9e6 b3be d6f8 e0bd
00000170: 59d3 f0bd 74ea 923e 817b 163e 2ac2 653e
00000180: d806 873d 9439 d7bc f3b0 853c 6699 9f3e
00000190: 058c 93be 7b70 ab3d 1692 5e3d 7ce6 f2bc
000001a0: ff05 49be 7de7 96be 53a0 373e 7ba4 19be
000001b0: 47ec 8e3e bb82 8b3e 8d38 cc3d cf6c 8cbc
000001c0: 3d86 263d 1b76 96be 9fe1 48be 7ce3 0bbe
000001d0: 383e a13d 135a 43bc a22e 8fbe 9f76 033e
000001e0: dea6 4dbe 4d5f 513e 4376 e6bd ded3 e5bd
000001f0: e93a 89be 5055 843e 6531 ffbb 5e75 843e
00000200: c8a7 563e 3958 a43c 7b6a 853c 9a9a 683e
00000210: d0c3 c5bc 53a3 60bc 8d23 39be b10f 42bb
00000220: bda3 5d3d e5e6 b6bd b2f2 36bd 49a1 55be
00000230: 2d4c 9bbd 9865 fcbc 49a2 5b3e ff63 a9bd
00000240: 4194 203c 857c 47be 64e4 85be b9c4 133e
00000250: 26bd 523e 5eaa 0dbe 7252 853d 41f9 6f3e
00000260: ca31 12be a555 373d 3407 cbbd 02a4 fdbc
00000270: eea4 67be 5302 b83d 7105 913d f9ba 8e3d
00000280: e13d 223e e9a4 10bd 0690 9dbe 2b80 413e
00000290: e5d8 f3bd 9300 04bc 3e0e 5f3e 54c5 293c
000002a0: e818 523c 6610 e0bb d5d9 603e a1f4 803d
000002b0: ea25 45bc 08b6 8f3e b737 413e 23f5 903b
000002c0: 1c88 01be 51ee 59be e9e6 05be a3e2 45bc
000002d0: 18f4 803e d3ed febd 17c8 a3be 05ba 5c3d
000002e0: 979a 1fbe 69c9 393e 570b 9fbe 2ced dbbd
000002f0: ff5d 23be dea1 b9bb 57b3 52bd 38c9 863e
00000300: 6ad9 5a3e 31f7 b4bd 8933 ecbd 9a21 883d
00000310: e37d 4cbe 2282 95be 780f 983d 61b8 363e
00000320: 2230 e6bd 8f23 8abe a914 823e 9e50 333e
00000330: 7056 be3d 353b ec3d 238d 413e 7bb7 e93b
00000340: c82e 39bd 717c 35be 7669 5dbc cd25 20be
00000350: 71d7 603e bf30 7ebd 412d 0bbe 7bba b03e
00000360: 55d4 75bd 8917 593e dfaf aebe b9fe b9be
00000370: f41d f7bd 81b4 a83e 9462 713d f319 543e
00000380: 3dd5 87bc 1eab 03be b45e 77be 9518 533e
00000390: 2891 85be ca8b 3cbd 0a1f 683d db83 633e
000003a0: eac6 e5bd ad1b b2be 01bf e93d 2078 acbd
000003b0: 1092 333e 71cb 00bd 5856 5f3e 19bd 44be
000003c0: 9eb8 e8bd 6568 06be 7d2b 1e3a 0e89 9bbd
000003d0: 3fa8 19bd a9f4 16be e5a3 40bd 862c 203e
000003e0: a5d7 64be 157b 043e 60ad debd 1d4c d2bd
000003f0: 74de b6bd 4991 913d b408 ab3d 8b50 023e

lstm.weight_hh_l1 f4 [128, 32]
0.060799748 0.14074858 -0.060356293 -0.004865809 0.019928731 0.057185654 -0.17447296 -0.10215404
0.13183238 0.13208655 0.062158562 -0.07693076 0.073894724 0.05861555 0.07077322 -0.08908142
0.028491745 0.09626795 -0.13561976 0.11192381 -0.13669339 -0.0017307893 -0.25554377 0.10163563
0.18635981 -0.14467303 0.13359956 -0.08259163 0.05710435 0.12813973 -0.008798267 -0.021620084
0.3117049 -0.040782146 0.092125185 0.058246605 -0.30467117 -0.12895186 0.30276036 0.041783884
0.27702582 0.15142466 0.32579076 0.14922461 0.24920093 0.2579546 0.2201492 -0.12946825
-0.26719618 0.038061652 0.03579971 0.13509193 0.26293004 -0.014321571 -0.2993727 0.033094097
0.1294027 -0.34637636 0.094895005 0.19610618 -0.06751754 -0.09019353 0.20552367 0.1396289
0.16472249 0.07623608 0.07893897 -0.13180521 -0.09957538 0.2112803 0.25052023 0.29640308
0.08668588 0.22965275 0.058432974 0.19411592 0.04620759 0.11362354 -0.011822203 -0.040318713
-0.031960644 0.19677384 -0.04595816 0.021283735 0.12894319 0.0006093425 -0.21378024 0.21166857
0.1458288 -0.16359499 0.20562972 0.17693645 -0.0882197 0.14318256 0.34118548 0.3010005
0.3542837 0.2720439 0.24394122 -0.062007386 -0.3514929 0.12561022 0.25470057 0.10030698
0.2887606 0.13843183 0.21685897 0.073426306 0.19996387 0.06907754 0.2865821 -0.034758054
-0.27202833 0.3393016 -0.18552412 -0.062456366 0.33100274 -0.07864062 -0.11520808 0.23672621
-0.021845097 -0.11533015 0.09085937 0.11636537 -0.0849305 0.108893976 0.10183839 0.1833738
0.14564389 0.064009905 -0.089789584 0.17804857 -0.11832856 0.1428455 -0.0252557 0.18077937
-0.04710924 0.15106711 0.23884566 -0.07236312 0.18227774 0.09027656 0.107947335 0.058471095
0.053869262 -0.046582058 0.021718636 0.100526266 0.08079951 -0.22634415 -0.20160599 0.1816
0.050937425 -0.004797369 0.07391606 0.25598037 -0.084327765 -0.06739905 0.00016931085 -0.08795974
0.3698652 0.01556503 0.015039901 0.08692257 -0.27644724 -0.033145774 0.030126462 0.22784376
0.12856373 0.0738508 0.33140838 0.12897488 0.11972921 0.1976857 0.28679195 0.034608476
-0.28563678 0.13571543 -0.1860748 0.06075496 0.24851854 0.058367737 -0.16604654 0.06726854
0.027570149 -0.08813288 0.12668318 0.08058755 -0.15809362 -0.036511894 0.27513477 0.12360228
0.3476673 0.3560035 0.1295471 -0.014545894 -0.13901459 -0.108979024 -0.037020735 0.07581167
0.035125684 0.22423148 0.15469903 0.25281826 0.2570868 0.25796616 0.24892162 -0.058221288
0.005567746 0.28889036 -0.13343312 -0.070412196 0.11725195 0.098478645 -0.08447565 0.3031326
-0.061421458 -0.29565743 0.048734266 0.25143057 -0.046442874 0.08364388 0.07366348 0.028854256
0.111597486 0.21968709 0.19979791 0.16779394 -0.009988521 -0.103780076 0.1885206 0.058162794
0.27749026 0.001215162 0.3112307 0.14974418 0.25198686 0.18384166 0.20291345 -0.07724627
-0.28394473 0.035281863 -0.12546772 -0.09918029 0.24235885 0.031612933 0.0098129865 0.12239078
0.12474149 -0.19530453 0.19011028 0.157778 0.0090258 -0.20436503 0.21636298 -0.004494251
00000000: 2809 793d 6520 103e 2938 77bd 5d71 9fbb
00000010: 9441 a33c 813b 6a3d 0aa9 32be 2336 d1bd
00000020: 11ff 063e b241 073e fa99 7e3d e08d 9dbd
00000030: 1e56 973d dc16 703d 8df1 903d 5270 b6bd
00000040: 8567 e93c 2228 c53d e8df 0abe 4f38 e53d
00000050: 5af9 0bbe a7db e2ba a2d6 82be 5726 d03d
00000060: 1bd5 3e3e 2b25 14be 53ce 083e cd25 a9bd
00000070: 40e6 693d 1037 033e 9b26 10bc 9a1c b1bc
00000080: c997 9f3e 2e0b 27bd 21ac bc3d fe93 6e3d
00000090: dcfd 9bbe f50b 04be 6803 9b3e 9425 2b3d
000000a0: 54d6 8d3e 110f 1b3e 0cce a63e 56ce 183e
000000b0: 872e 7f3e a012 843e cb6e 613e 5393 04be
000000c0: f0cd 88be 89e6 1b3d b7a2 123d 8a55 0a3e
000000d0: c49e 863e 06a5 6abc 6147 99be ad8d 073d
000000e0: 2482 043e 3e58 b1be 5058 c23d 0fd0 483e
000000f0: a346 8abd 63b7 b8bd cc74 523e e1fa 0e3e
00000100: 03ad 283e a921 9c3d c1aa a13d f2f7 06be
00000110: 2dee cbbd dd59 583e 3044 803e 25c2 973e
00000120: 5e88 b13d 172a 6b3e 6a57 6f3d 53c6 463e
00000130: 2b44 3d3d 75b3 e83d eab1 41bc 3c25 25bd
00000140: 2ae9 02bd 157f 493e a03e 3cbd 3a5b ae3c
00000150: af09 043e 48bc 1f3a 35e9 5abe a5bf 583e
00000160: 2554 153e 7285 27be 9990 523e d42e 353e
00000170: 88ac b4bd 739e 123e ddaf ae3e bd1c 9a3e
00000180: ac64 b53e 5749 8b3e bacb 793e 75fb 7dbd
00000190: e1f6 b3be f79f 003e 1d68 823e bf6d cd3d
000001a0: 6ed8 933e 13c1 0d3e 4710 5e3e 8860 963d
000001b0: 54c3 4c3e 8678 8d3d e4ba 923e 765e 0ebd
000001c0: 4c47 8bbe f0b8 ad3e 09fa 3dbe 3fd2 7fbd
000001d0: 3179 a93e 550e a1bd 37f2 ebbd 5b68 723e
000001e0: 7df4 b2bc 3732 ecbd 7a14 ba3d f850 ee3d
000001f0: 0bf0 adbd ce03 df3d a590 d03d 57c6 3b3e
00000200: ac23 153e a017 833d 9ae3 b7bd 5d52 363e
00000210: 3e56 f2bd 1746 123e 0be5 cebc 3a1e 393e
00000220: 9ef5 40bd 56b1 1a3e f593 743e 1e33 94bd
00000230: 04a7 3a3e ebe2 b83d 7e13 dd3d 637f 6f3d
00000240: 04a6 5c3d d4cc 3ebd 48eb b13c b7e0 cd3d
00000250: 377a a53d c3c6 67be cd71 4ebe 5af5 393e
00000260: c3a3 503d 3f33 9dbb 4e61 973d dc0f 833e
00000270: 09b4 acbd 8308 8abd 0989 3139 3c24 b4bd
00000280: f95e bd3e 7804 7f3c eb69 763c 7604 b23d
00000290: 7e8a 8dbe ddc3 07bd c5cb f63c e04f 693e
000002a0: 36a6 033e 173f 973d 5cae a93e fe11 043e
000002b0: 9734 f53d 1f6e 4a3e 65d6 923e 9ec1 0d3d
000002c0: fc3e 92be fcf8 0a3e 648a 3ebe 31da 783d
000002d0: a57b 7e3e 0213 6f3d 1b08 2abe 17c4 893d
000002e0: cbda e13c 037f b4bd 3cb9 013e 160b a53d
000002f0: 4be3 21be 7f8d 15bd 77de 8c3e 3123 fd3d
00000300: 7301 b23e 1746 b63e ffa7 043e e751 6ebc
00000310: d759 0ebe 6530 dfbd 0ea3 17bd 2643 9b3d
00000320: f3df 0f3d f09c 653e 6c69 1e3e 6571 813e
00000330: e2a0 833e 2414 843e 4fe5 7e3e 7279 6ebd
00000340: a371 b63b 70e9 933e b1a2 08be 4534 90bd
00000350: ca21 f03d 2caf c93d 9201 adbd 3234 9b3e
00000360: 1195 7bbd 6960 97be 959d 473d 82bb 803e
00000370: e23a 3ebd 7c4d ab3d e1dc 963d c35f ec3c
00000380: 398d e43d a7f5 603e d397 4c3e 2dd2 2b3e
00000390: e5a6 23bc a68a d4bd 8b0b 413e 1c3c 6e3d
000003a0: 3413 8e3e 1246 9f3a a159 9f3e 8a56 193e
000003b0: 6c04 813e fd40 3c3e 8bc8 4f3e 4b33 9ebd
000003c0: 3461 91be b783 103d 9c7a 00be 091f cbbd
000003d0: eb2c 783e 907c 013d a6c6 203c 04a8 fa3d
000003e0: 7778 ff3d e9fd 47be 45ac 423e 8e90 213e
000003f0: f3e0 133c 1145 51be 428e 5d3e 8344 93bb

lstm.bias_ih_l1 f4 [128]
0.09269009 0.34447783 0.034939893 0.3031373 -0.07518595 0.14390846 0.11339315 0.09148277
-0.092781894 0.013100368 0.17696588 0.20295417 0.20100018 0.10655961 0.05144566 0.02048658
0.22620785 0.22380546 0.09607605 0.11323662 0.08336595 0.14138725 -0.08972147 -0.12017096
0.2922844 -0.109995104 0.13987923 0.30456248 0.043938816 0.35738623 -0.003913008 0.05807377
0.22061375 0.18401077 0.037630465 -0.025272526 0.024459321 -0.007958662 0.12727197 0.010305346
0.13897404 0.059690952 0.12964992 -0.009022929 0.034711935 0.07900424 -0.061021805 0.17821757
-0.044834618 0.10292027 0.029904958 0.094673306 -0.02540448 -0.039141573 -0.010721705 -0.15002553
0.0017881179 -0.07830984 0.13123608 0.12426288 -0.01994501 0.16151163 -0.16196878 -0.118141636
0.16825601 0.17752767 -0.14480495 -0.0160391 -0.11380181 0.023721423 0.0029302367 -0.04734309
0.14587905 -0.076616205 0.050518714 0.17584397 0.07580263 0.13230143 0.02917615 -0.035487663
-0.05810036 0.13504924 0.011169062 0.047301974 0.0063532405 -0.042894404 -0.14616174 -0.13583162
-0.1703888 0.018833647 -0.11802165 0.159877 -0.11219907 0.057963934 -0.016007751 -0.019933075
0.071163595 0.06449122 0.016699325 0.29603282 -0.006359726 0.0777927 0.31070274 0.12411073
0.0732799 0.094057016 0.18358068 0.3006752 0.18193425 -0.023397176 0.2880442 0.20176353
0.013107826 0.23941456 0.15061904 0.056617096 0.026495965 0.25519043 0.13643746 -0.13392843
0.082704894 0.20163865 0.112134054 0.0709576 0.009272623 0.29125428 0.15427694 0.15584783
00000000: 4dd4 bd3d 665f b03e 221d 0f3d d034 9b3e
00000010: 17fb 99bd bd5c 133e ab3a e83d 525b bb3d
00000020: 6f04 bebd eda2 563c 8b36 353e 38d3 4f3e
00000030: fed2 4d3e ed3b da3d afb8 523d 79d3 a73c
00000040: 08a3 673e 422d 653e 85c3 c43d 9ae8 e73d
00000050: c4bb aa3d d2c7 103e e4bf b7bd 311c f6bd
00000060: 4da6 953e 1d45 e1bd 803c 0f3e 9def 9b3e
00000070: 30f9 333d 54fb b63e b138 80bb c3de 6d3d
00000080: 92e8 613e 526d 3c3e 6722 1a3d 5408 cfbc
00000090: ea5e c83c 0c65 02bc 9553 023e c1d7 283c
000000a0: 364f 0e3e 807e 743d f3c2 043e e8d4 13bc
000000b0: 1a2e 0e3d facc a13d 00f2 79bd ab7e 363e
000000c0: 81a4 37bd ddc7 d23d 3efb f43c 14e4 c13d
000000d0: 0e1d d0bc ea52 20bd 17aa 2fbc 4ba0 19be
000000e0: 485f ea3a e960 a0bd c062 063e 897d fe3d
000000f0: b863 a3bc 4e63 253e 25db 25be 3ef4 f1bd
00000100: 4e4b 2c3e d0c9 353e c047 14be 6e64 83bc
00000110: ec10 e9bd 6e53 c23c 3709 403b d4ea 41bd
00000120: 5161 153e f5e8 9cbd b6ec 4e3d 7110 343e
00000130: 693e 9b3d 077a 073e d202 ef3c 835b 11bd
00000140: a5fa 6dbd 594a 0a3e 71fe 363c b7bf 413d
00000150: d82e d03b 0bb2 2fbd 6cab 15be 7217 0bbe
00000160: 677a 2ebe 0549 9a3c 56b5 f1bd ccb6 233e
00000170: a0c8 e5bd 976b 6d3d b022 83bc b04a a3bc
00000180: 38be 913d f913 843d 06cd 883c 9d91 973e
00000190: 4065 d0bb c751 9f3d 6e14 9f3e c42d fe3d
000001a0: c613 963d f7a0 c03d 93fc 3b3e 1af2 993e
000001b0: f94c 3a3e 6fab bfbc 887a 933e 199b 4e3e
000001c0: 35c2 563c 1729 753e e13b 1a3e 54e7 673d
000001d0: 110e d93c 52a8 823e 43b6 0b3e 8924 09be
000001e0: 2f61 a93d 5d7a 4e3e 8aa6 e53d 3852 913d
000001f0: 33ec 173c 481f 953e c6fa 1d3e 9396 1f3e

lstm.bias_hh_l1 f4 [128]
-0.12090644 0.100585535 0.254989 0.09772909 0.17526941 0.26153076 0.21042085 -0.069876336
-0.060021788 0.05381828 -0.14431456 0.24118204 0.01150278 -0.0340253 0.28554532 0.046008103
-0.030201592 0.008477617 -0.055776525 0.21753916 0.104504675 0.14749521 -0.027502272 0.1503086
0.29352403 -0.1288974 -0.03569917 0.1556581 -0.037796814 0.14290251 -0.034143627 0.25422776
-0.1148317 0.009225317 -0.11983641 -0.06055796 0.19479285 0.21369776 -0.08290456 -0.048607234
-0.15180528 0.11206629 -0.04999556 0.05411535 0.16995698 0.056749742 0.052908674 -0.10978786
0.099069364 0.009152808 0.054115012 0.16258116 0.15399677 -0.058031686 -0.066915676 0.08344982
-0.064307086 0.03810559 -0.068850525 -0.010291652 0.2125724 0.18079203 0.027335363 0.13703763
0.16572101 0.14693038 0.1420972 0.06444249 -0.12911788 -0.13438371 0.07052588 0.06427882
-0.0109481625 0.16361983 -0.009127073 -0.1037708 0.08773247 0.0141129345 -0.056046356 -0.036469582
-0.17357524 0.008343139 -0.12417123 0.030295977 0.14159332 -0.15370192 0.018107558 0.1598479
0.04234597 0.059098143 0.0047864434 -0.041545976 0.10263079 -0.0552067 0.008226258 -0.026162593
-0.048374448 0.23814219 0.348918 0.15727125 0.23133174 0.31477585 0.1163972 0.30914634
0.20309876 0.20643525 0.12869672 0.34291717 0.2486011 0.117464006 0.2958416 0.0778646
-0.07308159 0.16046852 0.13527632 0.11376736 0.08094831 0.33815026 0.08754755 0.09465167
0.073107645 0.17602134 0.15645418 0.12951584 0.26245177 0.06845123 -0.0023139322 0.24614422
00000000: cc9d f7bd caff cd3d eb8d 823e 3026 c83d
00000010: d379 333e 5ce7 853e 9078 573e 531b 8fbd
00000020: 68d9 75bd 8f70 5c3d 32c7 13be 6df8 763e
00000030: 2876 3c3c 1d5e 0bbd ff32 923e fe72 3c3d
00000040: 5469 f7bc b4e5 0a3c ed75 64bd 96c2 5e3e
00000050: 8c06 d63d fc08 173e 724c e1bc 7fea 193e
00000060: c848 963e aefd 03be 4b39 12bd d664 1f3e
00000070: d5d0 1abd 0955 123e 30da 0bbd 242a 823e
00000080: e22c ebbd c925 173c cb6c f5bd a00b 78bd
00000090: c777 473e 96d3 5a3e dec9 a9bd 6118 47bd
000000a0: d872 1bbe 0383 e53d 25c8 4cbd 0fa8 5d3d
000000b0: 3409 2e3e 6b72 683d c4b6 583d 75d8 e0bd
000000c0: e1e4 ca3d a9f5 153c b4a7 5d3d ad7b 263e
000000d0: 54b1 1d3e a2b2 6dbd 160b 89bd bde7 aa3d
000000e0: 6fb3 83bd 9b14 1c3d 8101 8dbd 519e 28bc
000000f0: 94ac 593e 8c21 393e 69ee df3c 9853 0c3e
00000100: c5b2 293e eb74 163e ee81 113e 6dfa 833d
00000110: 7a37 04be e29b 09be df6f 903d 9da4 833d
00000120: ec5f 33bc f58b 273e b889 15bc c985 d4bd
00000130: 15ad b33d f039 673c dd90 65bd 2161 15bd
00000140: b5bd 31be a9b1 083c 7c4d febd 452f f83c
00000150: d7fd 103e 0964 1dbe 4d56 943c 2baf 233e
00000160: f872 2d3d e510 723d 99d7 9c3b 1d2c 2abd
00000170: 1730 d23d 6c20 62bd 6dc7 063c ef52 d6bc
00000180: 4924 46bd 8cdb 733e 61a5 b23e b70b 213e
00000190: 3ae2 6c3e 4d2a a13e a861 ee3d 6e48 9e3e
000001a0: 1ff9 4f3e c363 533e 13c9 033e d792 af3e
000001b0: 4991 7e3e f890 f03d 8d78 973e 7a77 9f3d
000001c0: cdab 95bd dc51 243e e085 0a3e ddfe e83d
000001d0: 3ac8 a53d 0822 ad3e 214c b33d bcd8 c13d
000001e0: 76b9 953d f03e 343e 8635 203e cd9f 043e
000001f0: 1460 863e 2930 8c3d 57a5 17bb 3b0d 7c3e

fc.weight f4 [2, 32]
0.23660979 0.20229815 0.38219872 0.49121252 -0.22258788 0.4798538 -0.43195367 -0.19510789
-0.11672096 -0.5353551 0.1136413 0.42225948 -0.38476375 -0.17437501 0.1590936 -0.36235443
0.23098314 0.06963242 0.25602797 -0.44958496 -0.334785 -0.54394996 0.23565148 -0.22043793
0.18796247 -0.08914948 -0.06979641 0.16443844 -0.34693244 -0.44486535 -0.2011098 0.42262548
-0.1829088 -0.4269784 -0.43189123 -0.4243963 -0.0582054 -0.39226654 0.3055717 0.4158168
0.24536017 0.43643782 -0.3021932 -0.32803547 0.21264365 -0.007094258 -0.2178562 0.512798
-0.15324873 -0.32661808 -0.36735225 0.3662947 0.21148881 0.3260629 -0.08221572 0.19853354
-0.44834167 -0.10118974 -0.1424187 -0.46023312 0.2733537 0.4428413 0.27963203 -0.22264205
00000000: d649 723e 3f27 4f3e 8daf c33e 3580 fb3e
00000010: 14ee 63be 66af f53e 0829 ddbe 5dca 47be
00000020: 660b efbd 080d 09bf c5bc e83d 6532 d83e
00000030: c1ff c4be 5d8f 32be 6fe9 223e 8586 b9be
00000040: d886 6c3e 719b 8e3d 1916 833e 0030 e6be
00000050: f168 abbe 4e40 0bbf 9f4e 713e 7bba 61be
00000060: 3c79 403e 0194 b6bd 6cf1 8ebd 8d62 283e
00000070: 21a1 b1be 64c5 e3be baef 4dbe 5e62 d83e
00000080: 724c 3bbe ea9c dabe d920 ddbe 794a d9be
00000090: c968 6ebd 29d7 c8be e573 9c3e f1e5 d43e
000000a0: b23f 7b3e c774 df3e 11b9 9abe 44f4 a7be
000000b0: 42bf 593e f376 e8bb b215 5fbe bb46 033f
000000c0: 3ced 1cbe 7c3a a7be 9815 bcbe fb8a bb3e
000000d0: 8690 583e b7f1 a63e b760 a8bd 604c 4b3e
000000e0: 0a8d e5be 913c cfbd 35d6 11be ada3 ebbe
000000f0: 04f5 8b3e 18bc e23e ee2b 8f3e 47fc 63be

fc.bias f4 [2]
-0.028054466 -0.07684653
00000000: 7bd2 e5bc b761 9dbd
